artifacts/model:v0/gnn-recsys-model.pt (torch, 58358 bytes, 9 tensors)

gnn.0.bias f4 [23]
000000 1d 80 15 3c ba aa 66 be 8c df be bd eb 61 60 be
       0.009124783 -0.22526065 -0.09319982 -0.21912353
000010 62 30 89 bd d3 8e 18 bd 8e 50 27 bd 7b 6a 6e be
       -0.066986814 -0.037245583 -0.040848307 -0.23282807
000020 c2 2d 49 be 71 66 4e be 17 40 e3 bd c2 c0 b8 3c
       -0.19646361 -0.20156266 -0.110962085 0.022552852
000030 3a ce 80 be 1d c8 50 be b3 43 93 bd 3b d0 88 be
       -0.25157338 -0.20388837 -0.07190647 -0.26721367
000040 b7 d5 96 bc cc 98 a4 bd b0 d7 4a 3c 5d 20 9f be
       -0.018412454 -0.08036956 0.0123805255 -0.3107938
000050 a5 9a 47 be 1a 37 82 be 47 1a 76 bc
       -0.19492586 -0.25432664 -0.015020913

gnn.0.lin.weight f4 [23, 495]
000000 29 d0 d6 bd 44 7c 10 3d 3c 6b 7a 3d 55 31 48 3d
       -0.10488922 0.03527476 0.061137423 0.04887517
000010 79 b4 87 bd 8a d1 bc 3d 87 cf 4c 3d 24 44 19 3d
       -0.06626219 0.09219654 0.0500026 0.0374185
000020 3f 82 80 3d e6 dd 4c b9 a0 af 1a 3d 9d 85 ac bd
       0.062748425 -0.0001953762 0.037765145 -0.08423922
000030 84 ea 4f bd 83 ec b8 bd f8 0a 66 3d 4a ea c4 3c
       -0.05076076 -0.09029486 0.056162804 0.024037499
000040 58 e6 e7 bd 6b aa 30 be 08 18 92 3e 94 87 23 3e
       -0.113232315 -0.1725251 0.2853396 0.15969688
000050 17 f0 36 bd 05 af 05 3f fa 46 0b be cc 6d dc 3e
       -0.04466256 0.52220184 -0.13601294 0.43052518
000060 a3 d5 b0 3e a3 b8 7b 3e 80 99 01 3f 9e c6 9b 3e
       0.34537992 0.24582152 0.5062485 0.3042497
000070 e3 d5 9d be 17 09 08 be 8f d2 a6 be 86 ac 2c be
       -0.30827245 -0.13284718 -0.32582518 -0.16862687
000080 69 b8 2a be 66 44 c5 be cb c9 85 3e f0 1e d4 3d
       -0.1667191 -0.38528746 0.26130518 0.10357463
000090 40 42 47 bd ac 8e a7 3e cf 71 a8 be ca b5 9e be
       -0.048647165 0.32726038 -0.3289933 -0.3099807
0000a0 48 40 01 3f e0 ac ff 3e 6b 87 56 3e 2e fc 8c be
       0.5048871 0.4993658 0.20950095 -0.27536148
0000b0 00 0e d3 be 23 2c db be a3 bb 81 3e 85 93 c6 3e
       -0.4122162 -0.4280711 0.25338468 0.38784423
0000c0 25 cc ca be 83 6e 29 be cf e5 c4 be 0c 89 91 be
       -0.39608875 -0.16546063 -0.3845658 -0.2842487
0000d0 dd df 79 be ea a2 ac be 26 8b 88 be eb 91 b9 3e
       -0.24401803 -0.33718044 -0.26668662 0.3624414
0000e0 f5 37 2d bd 73 2e 81 3d 7c 73 f0 be 22 27 75 be
       -0.042289693 0.063076876 -0.46963108 -0.23940709
0000f0 f7 55 c2 be 14 29 b4 be 5f 22 c4 3e f6 38 e3 bd
       -0.3795621 -0.3518759 0.38307473 -0.11094849
000100 4d 09 d4 be 94 67 99 3e 8c 76 4e 3e 01 26 e9 bd
       -0.41413346 0.29961836 0.2016241 -0.11384202
000110 8b a0 bc be 72 e5 23 be fa 4d d1 bd a2 be 7d be
       -0.36841235 -0.16005495 -0.10219951 -0.24779752
000120 a4 11 c5 be b5 f4 ef be 91 f8 75 be 17 2b 0f 3f
       -0.3849002 -0.46866384 -0.24020602 0.55925125
000130 f9 7b 52 be 70 85 95 be cb 6d af be fc 90 b8 be
       -0.20555104 -0.29203367 -0.34263453 -0.36048114
000140 9b 98 46 bc 06 8b 99 3e 6f 7e 53 be 5a be aa be
       -0.012121345 0.2998888 -0.206537 -0.33348352
000150 6d a8 91 be 17 3e 34 3e f0 7e 0d 3e ee 96 b7 be
       -0.2844881 0.1760181 0.13817954 -0.35857338
000160 70 73 b4 be 7e b4 c0 be bd ef 80 be f6 d1 93 be
       -0.35244322 -0.37637705 -0.25182906 -0.28871125
000170 29 2a 9a be a9 76 a3 bc 1b 64 14 3f e0 dd ff 3d
       -0.3011029 -0.019954043 0.5796525 0.12493491
000180 4a 9a 01 bf 81 7a ae be 16 53 2a be 17 cf cd be
       -0.5062605 -0.34077838 -0.16633257 -0.4019706
000190 cc fb ad 3c b5 ea 8f 3d cd d1 b9 3e 11 ec 7c be
       0.02123823 0.07027189 0.36292878 -0.24699427
0001a0 86 08 d5 be ba d3 26 3e fa d5 82 be a5 1c 9b 3c
       -0.41608065 0.16291705 -0.25553876 0.018934557
0001b0 9c 40 94 be 4b 00 d5 3e 91 81 a5 3e b5 f5 74 be
       -0.28955543 0.41601786 0.32325414 -0.23921855
0001c0 e2 a5 80 be 09 ac 9f be e3 07 9c be e9 d4 e0 be
       -0.2512656 -0.3118594 -0.30474767 -0.43912438
0001d0 06 e1 61 3d ed 3d 48 3d 0b bf a2 be 4d 41 fa be
       0.05514624 0.048887182 -0.3178638 -0.48877946
0001e0 16 da 12 be 7c 4c 9f 3e b6 b8 4e 3e 53 cb 97 3e
       -0.14341006 0.3111304 0.20187649 0.29647312
0001f0 04 28 d0 3e 0e 43 2b bf 18 ed a3 be 75 68 ec be
       0.4065553 -0.6689919 -0.32016826 -0.46173444
000200 63 31 d4 3c d9 ab 44 be 5a 15 cb be 8d 66 0f 3e
       0.025902456 -0.1920618 -0.39664727 0.14003964
000210 d9 8c 90 be 4b 7b a8 be 43 6a 9e be 6c 5d b2 be
       -0.28232458 -0.32906565 -0.30940446 -0.348369
000220 f7 12 a3 be 14 d3 cd bd 23 bc 77 3e f8 cd ec 3d
       -0.31850407 -0.100500256 0.24192862 0.11562723
000230 a5 ee 0f be a9 81 a4 bd fe a0 af bd 88 f7 ee 3d
       -0.1405588 -0.08032543 -0.08575629 0.116683066
000240 85 ad 69 be 39 9f e7 3b 7c 64 b3 be 07 f1 77 be
       -0.22820099 0.0070685414 -0.350376 -0.24213038
000250 81 0c a4 be be 08 e0 3e fa 42 9f 3e f5 e3 f4 bd
       -0.3204079 0.4375667 0.31105787 -0.11957542
000260 14 f0 90 be 85 da 60 be 76 35 e0 be dc d1 9c be
       -0.28308165 -0.21958359 -0.43790787 -0.3062886
000270 96 e5 a7 be a2 e7 a4 be 07 a0 78 be 0b 89 aa bd
       -0.32792348 -0.32207972 -0.24279796 -0.0832692
000280 8f 9a 4c 3b 18 5f 23 bd 38 3c ac bb 96 ca 1b be
       0.0031220054 -0.03988561 -0.005256202 -0.15213999
000290 88 fc b3 be 74 15 9b 3e 81 4f 7d be af 0c 07 be
       -0.35153604 0.30289805 -0.2473736 -0.13188432
0002a0 b9 6d 19 be ba 1f c1 3a 38 f5 94 bd 67 74 89 3e
       -0.14983262 0.0014734187 -0.07273334 0.2684662
0002b0 92 d1 8a be 1f 96 95 be 14 e7 d0 3c 5a f3 9c be
       -0.27113014 -0.29216096 0.025500812 -0.30654413
0002c0 70 89 98 be 43 42 18 3f 80 5f 3a 3f c4 fd b9 3d
       -0.29792356 0.5947611 0.7280197 0.09081605
0002d0 7a 4b 7f bb a5 44 c1 3d 4b 98 8c be c8 96 e7 be
       -0.00389549 0.09436921 -0.2745994 -0.45232224
0002e0 99 b7 eb be 20 7d c3 3d 9e c5 a2 be 19 e4 d7 3c
       -0.4603851 0.0954535 -0.31791395 0.026353883
0002f0 0f 72 9f 3e 14 73 ba 3e cf 59 84 bc f5 94 0c 3e
       0.31141707 0.36415923 -0.016156105 0.13728698
000300 9d 05 bb 3d b5 35 c2 3d 3c fa e7 bd 0e 4a b9 be
       0.0913193 0.094829 -0.11327025 -0.36189312
000310 dc 5a 71 be b9 5b 7b be 9f 9c 42 3c 10 73 53 3e
       -0.23569816 -0.24546708 0.011878162 0.20649362
000320 9e c2 a4 3e 90 19 a3 be 68 04 14 3e bc 62 14 bd
       0.3217973 -0.3185544 0.14454806 -0.036226973
000330 93 f4 1a be 06 8a a0 be d5 ed 8a be e3 75 70 be
       -0.1513236 -0.31355304 -0.27134576 -0.2348247
000340 0a cd 87 be 9e 49 94 be a7 ac 93 3e 51 24 63 3e
       -0.2652362 -0.28962415 0.2884266 0.22181822
000350 85 2f be be cd 40 38 3c 23 10 bd be 3d 97 95 be
       -0.3714563 0.011245918 -0.36926374 -0.29216948
000360 58 d5 44 bd 0f 62 70 3d 19 5d 6d be 60 bc b9 bc
       -0.048055023 0.058687266 -0.23180045 -0.022672832
000370 67 2d 93 be 4f 11 9b be ee 85 b0 be 3e 09 7b be
       -0.28745577 -0.30286643 -0.3447718 -0.24515244
000380 37 3d 4d be 5a a6 1c 3d c6 f3 25 3f ac b7 f0 3e
       -0.20042883 0.038244583 0.64825094 0.4701513
000390 6b 5b 5a bd 07 19 9d be d8 da 4b bd 91 46 ed bd
       -0.05330984 -0.30683157 -0.049769253 -0.11585725
0003a0 8d 0a 87 be 12 4f 6c 3d 47 36 c2 bd 1b e1 98 be
       -0.26375237 0.057692595 -0.09483009 -0.29859242
0003b0 39 13 10 3e ba b9 97 3c be 0c 9a be 55 66 41 bd
       0.14069833 0.018521179 -0.30087847 -0.047216732
0003c0 97 b2 85 be 3c 05 86 be 3a 71 4a be 02 7c b0 be
       -0.26112816 -0.2617587 -0.19769755 -0.3446961
0003d0 ca 8d 97 be 6b dd 80 be 7e 7d 97 bd 2a 78 ba bd
       -0.29600364 -0.25168929 -0.073969826 -0.09104951
0003e0 09 08 9a be 21 d5 81 be 3b bc 84 3e 16 9d fc bc
       -0.30084255 -0.25357917 0.25924858 -0.030836623
0003f0 a2 dc b1 bd 8b 04 dd bd eb 21 9b be 4a 2d 20 be
       -0.086846605 -0.10791882 -0.30299315 -0.15642276

gnn.2.bias f4 [23]
000000 f0 86 eb 3c b6 ba 0f 3a 7c a6 47 be 65 44 88 be
       0.028750867 0.0005482839 -0.19497102 -0.2661468
000010 6e 9a 58 be 7a 67 ec bb f8 05 fd 3c 84 85 a6 3d
       -0.2115266 -0.007214484 0.030886635 0.08130935
000020 9c e6 97 3d 2c 06 32 be af be 06 be 23 21 7c bc
       0.07417032 -0.17385167 -0.13158678 -0.01538876
000030 79 61 47 be 95 f3 8a 3d 98 f3 07 be db 35 20 be
       -0.19470777 0.06784741 -0.13276517 -0.15645544
000040 91 52 4e be 19 b6 3e 3d 7e 76 48 be 50 a2 3a be
       -0.20148684 0.04656038 -0.19576451 -0.1822598
000050 9e f9 7e 3d c4 b3 85 3d 05 7f 9d 3c
       0.062249772 0.06528428 0.019225607

gnn.2.lin.weight f4 [23, 23]
000000 2a 28 1a 3e 47 db 85 bd 63 94 9b be 1c 53 26 be
       0.15054384 -0.065359645 -0.30386648 -0.16242641
000010 ac 99 95 bd 9c 6f 2b 3e fe 60 f0 3d 7a de 75 3d
       -0.07304701 0.16741794 0.1173725 0.060026623
000020 2a ad 5e 3e d5 e7 b3 be f3 61 35 3e 33 51 81 3e
       0.21745744 -0.3513781 0.17713146 0.25257263
000030 ea b9 17 3e d5 17 be 3e d7 4e f6 be d8 81 ee 3b
       0.14817014 0.37127557 -0.48107025 0.007278662
000040 1f d7 07 be a7 95 e0 bd e8 ff 16 3e 71 7e 57 3d
       -0.13265656 -0.10966044 0.14746058 0.05261082
000050 16 c2 37 be d2 19 8f be 14 08 81 3e 7b 28 20 3e
       -0.17945132 -0.27949387 0.25201476 0.15640442
000060 89 bc 4c bb 10 19 f9 3d c5 06 ac 3e 91 5b b1 be
       -0.0031240305 0.121629834 0.33598915 -0.34640172
000070 57 5a c1 be 26 46 5a 3e 1f 43 24 bd 2b 5f e1 3c
       -0.37764236 0.21315822 -0.040103074 0.0275112
000080 51 a1 03 3e 72 7a 2d 3e c7 d7 02 be ad 32 c2 bd
       0.12854506 0.1694124 -0.12777625 -0.09482322
000090 94 f7 8e 3e 10 9c 3a 3e 8e 41 de 3d c8 b7 83 be
       0.27923262 0.18223596 0.10852347 -0.2572615
0000a0 72 b8 9f 3d 8d 09 d1 bd 8f 53 1d be 81 c7 c1 be
       0.07798852 -0.102069 -0.15363906 -0.37847522
0000b0 52 b8 6a be e5 de c3 bc 40 fb 96 bd a3 ba 5d bd
       -0.22921875 -0.023909995 -0.07372141 -0.05413307
0000c0 a9 f7 a9 be eb 7b 49 3d 3b 9d 0c bf 29 c1 00 bf
       -0.33196762 0.049190443 -0.54927415 -0.5029474
0000d0 46 69 c8 3d 10 28 f5 be 07 ab c2 be 4f e9 3c 3d
       0.09785704 -0.47882128 -0.38021109 0.046120938
0000e0 5c 67 a3 be 19 71 93 be 15 93 4c 3d f9 52 de be
       -0.31914794 -0.28797224 0.049944956 -0.43422678
0000f0 fa 7b 76 3d 7f 54 53 be 66 f8 2b be b9 5e ae bd
       0.060176827 -0.20637701 -0.16793975 -0.08514161
000100 13 22 0d bf f5 de eb be f0 9f c8 bd a3 9e d9 be
       -0.5513012 -0.4606854 -0.09796131 -0.42503843
000110 63 9d ed be 76 88 c9 be c1 42 07 3e 01 c5 b0 3e
       -0.4640914 -0.39361924 0.13209058 0.34525302
000120 b1 fc ed bc 24 b8 9c be 83 e2 6c be cf af 86 be
       -0.029051157 -0.30609238 -0.23133282 -0.26306006
000130 02 49 15 3e 4e 43 56 3e c0 69 10 be 62 a9 9d 3e
       0.14578632 0.20924112 -0.1410284 0.3079329
000140 8c 48 be be e6 49 96 be c9 74 09 3e 5d d3 09 bf
       -0.37164724 -0.29353255 0.13423456 -0.5383814
000150 9a 50 26 3e 62 65 ab 3e 7e 24 ff 3d f3 a7 19 bd
       0.16241685 0.33475786 0.12458132 -0.037513684
000160 52 86 d4 be 42 31 82 bd 86 9e cf 3e 6b 4e 9c be
       -0.41508728 -0.063570514 0.4055063 -0.30528578
000170 0f 73 10 3d c3 6c 0e bf 31 ad 05 be cd 7e 77 be
       0.03526598 -0.5563471 -0.13054349 -0.24169464
000180 1a 1c 24 bf f2 16 14 bf 00 56 ed be 67 ff 3f be
       -0.6410538 -0.5784751 -0.46354675 -0.18749772
000190 6a bf 0b be e2 d7 d8 bc 4b e0 e5 3e f2 39 be bd
       -0.13647237 -0.026470128 0.44897684 -0.09288396
0001a0 c2 db a8 be 3d 21 7c be 02 ae 47 be fa 71 67 3e
       -0.32980162 -0.24622054 -0.19499972 0.22602072
0001b0 4e 38 82 3e ec 83 9e bd c7 eb 0e bf ec 85 6a be
       0.25433582 -0.07740006 -0.5582852 -0.2290265
0001c0 c5 ff 58 bf 01 b7 d8 3e 05 e8 92 be ad f0 ad bc
       -0.84765273 0.4232712 -0.28692642 -0.021232927
0001d0 7f 02 ad 3d f2 3c 3c be 7f 85 c8 3e 71 d4 89 bd
       0.08447742 -0.18382624 0.3916435 -0.06729973
0001e0 39 6b 88 3e ab 45 5a 3e 16 e3 6d 3b c2 fb b5 3d
       0.26644304 0.21315639 0.0036298684 0.088859096
0001f0 16 6a 46 3e ea 88 3e 3e f5 78 9c be 54 2a 0c bd
       0.19376406 0.18606916 -0.30561033 -0.034220055
000200 59 ff d4 bd da 40 ac bd 91 fb 83 bd e8 eb 61 be
       -0.10400266 -0.08410807 -0.06444467 -0.22062647
000210 6a e9 1f 3e 6e 12 16 be 36 23 49 3d 39 6a cd 3b
       0.15616384 -0.14655468 0.049105845 0.0062687662
000220 68 31 e4 3c 94 6a bd bd e5 6d d7 be 59 8f 02 3e
       0.02785559 -0.09248844 -0.4207603 0.12749995
000230 65 c3 0d be bf 94 6f be 1a f6 81 3d 3a a5 55 3d
       -0.13844068 -0.23396586 0.06345768 0.052159525
000240 b0 0e af be e5 f8 0f bf 57 0d 97 be e9 fc 9f 3c
       -0.34190893 -0.5623916 -0.29502365 0.019529777
000250 17 8a 8f bd f0 02 73 3d a5 2b db bd 71 d9 ae 3e
       -0.070087604 0.059328973 -0.10701684 0.3415027
000260 5f 4e 70 3e d3 ba 86 be 82 93 16 bf 5e 77 14 3e
       0.23467396 -0.2631441 -0.5881883 0.1449866
000270 35 ba 3f bd 57 76 2f be bf 13 19 3e 0b a4 b6 be
       -0.04680844 -0.17134987 0.14948939 -0.3567203
000280 9d d3 1b 3c be d2 29 3d b1 73 0a 3e f1 1b 43 bd
       0.009510902 0.041460745 0.13520695 -0.04763407
000290 ec 3c 9b 3d 39 d1 66 bd ce 21 89 3e 78 6b 37 be
       0.07579979 -0.056351874 0.26783603 -0.1791209
0002a0 3f 29 b5 3e 92 01 38 3e f7 2a 61 be 46 f0 bf 3d
       0.3538303 0.17969349 -0.21989046 0.093720004
0002b0 bd 14 71 3e 5d cd a5 bc 13 e1 ae 3d bc d9 a0 3e
       0.23543067 -0.020239526 0.08539023 0.31416118
0002c0 b5 0f b7 3e 1f c6 43 3e 98 b8 96 be 0f 3b 4e be
       0.3575417 0.19118546 -0.2943771 -0.20139717
0002d0 c9 31 2e 3e 5c 67 0b 3e a9 7c 07 be 63 d6 4a be
       0.17011179 0.13613647 -0.13231148 -0.19808345
0002e0 af 06 8b 3d 1b ae 92 3e fa a6 d1 bd 50 4d 96 3c
       0.06788384 0.28648457 -0.102369264 0.018347412
0002f0 ea 7d f1 3d 00 c9 bd bc b8 79 98 bd 90 66 0d be
       0.11791594 -0.023167133 -0.07445091 -0.13808656
000300 42 49 4a be f6 ae cc bd 13 3a fe bd ee ef d2 3d
       -0.19754508 -0.09994309 -0.124134205 0.10299669
000310 91 b4 59 be b9 e4 2f be 86 e6 70 3d a0 60 db be
       -0.21260287 -0.17177095 0.058813594 -0.42847157
000320 d2 db df bd b7 37 0d 3e b8 2d 34 3e 4b 8e 11 bd
       -0.10930599 0.13790785 0.17595565 -0.03553609
000330 74 43 da 3d ca ad c1 be 12 13 3b be 61 8b 0c bf
       0.10657397 -0.37827903 -0.18268993 -0.54900175
000340 ca 7a 29 bf 61 33 98 3e 8e 2f d4 be 99 73 61 be
       -0.66202986 0.297267 -0.4144253 -0.22016753
000350 9f a0 f8 be 85 ef 05 be ee 2d 0f 3f f4 6a c1 3e
       -0.48560044 -0.1307965 0.5592946 0.3777691
000360 0c fd 7c 3e 5d fa 5a 3e 2d 53 04 bf fa 7a 1d bf
       0.24705905 0.21384569 -0.51689416 -0.6151577
000370 fd 2d 76 be 56 a3 d3 be ae 61 3f 3e f7 bf 3c be
       -0.2404098 -0.41335553 0.18689606 -0.18432604
000380 ad e4 9b bc 4b 7e b0 be c2 ce 12 3d 21 04 1f bf
       -0.01902994 -0.34471354 0.03584171 -0.62115675
000390 a8 8a 81 bc 4c eb e1 be 96 45 ca be 17 86 a6 bd
       -0.015813187 -0.4412483 -0.39506215 -0.08131044
0003a0 a2 3c 29 bd 3e f9 79 3e 75 f7 43 bc 93 bd 0e bd
       -0.04131759 0.24411485 -0.011960854 -0.03484876
0003b0 c5 bf 7c be bf 6f ed bc 8e f4 9b 3e 39 be 1d 3d
       -0.2468253 -0.028983949 0.30460018 0.03851149
0003c0 5c 92 13 3e 56 ce 6b be ec 75 15 bd d1 33 d9 bd
       0.144113 -0.2302793 -0.036489412 -0.10605586
0003d0 3d 6d cb be df 4a 00 3e 0f 11 4b 3e 6c d4 d9 3d
       -0.3973178 0.12528561 0.19830726 0.106362194
0003e0 24 74 08 bf ba 08 0c 3e 03 5f 14 3e cd 49 ad 3e
       -0.53302217 0.13675204 0.14489369 0.33845368
0003f0 5b 59 f2 be 01 77 a4 bd 7f 8d 9c be d8 1c 5a bb
       -0.47333798 -0.08030511 -0.30576703 -0.0033281352

gnn.4.bias f4 [23]
000000 80 0c f9 3d 19 1d 48 be 15 c0 8f be b9 29 52 be
       0.12160587 -0.1954235 -0.28076234 -0.20523728
000010 c7 65 78 bd 81 b2 48 be 1d d7 4e 3e 44 f6 44 be
       -0.060643937 -0.19599344 0.20199247 -0.19234568
000020 4c ed 7e 3e 80 8b 84 3e 5f ee 1f bc 58 88 0b 3d
       0.24895209 0.2588768 -0.009761422 0.034065574
000030 9c d4 b1 be 4f 35 55 3e 25 f4 47 be 91 a7 33 3e
       -0.3473252 0.20821117 -0.19526727 0.1754439
000040 93 a9 73 3e 8d f1 47 be 80 54 86 3e 75 41 4a be
       0.23795156 -0.19525738 0.26236343 -0.19751532
000050 14 20 82 3e e6 c9 66 be ff f9 48 be
       0.254151 -0.22537956 -0.19626616

gnn.4.lin.weight f4 [23, 23]
000000 7f f1 17 3e 39 6e 17 3c 2a 10 80 be 51 f5 02 bf
       0.14838217 0.009242588 -0.25012332 -0.51155573
000010 53 fc de 3e f7 24 1a 3e e7 13 8a be c9 23 0d 3e
       0.43551883 0.15053163 -0.2696831 0.13783182
000020 a4 68 b7 3d 89 46 8b be d2 68 5f be b8 49 bf be
       0.089555055 -0.27202252 -0.2181733 -0.3736093
000030 bd c7 19 be a3 7c c6 bd 04 ca ce 3d 79 ba ee be
       -0.150176 -0.09691741 0.10097125 -0.46626642
000040 34 74 ee be ae bf 8a bc 26 7a f8 bc cc 2e a3 3d
       -0.4657303 -0.016937103 -0.030331682 0.0796791
000050 90 88 d9 3d 6d 68 db be 3e 4e 3c 3e af 12 bf be
       0.1062175 -0.42853108 0.18389222 -0.37318942
000060 7b 05 12 3d b6 ed 84 be 21 6a 69 bd 41 60 27 be
       0.035649758 -0.2596261 -0.056985978 -0.16345312
000070 48 c4 17 bf 70 21 0e be ca 3d 66 be 01 0d 6b bd
       -0.59283876 -0.13879943 -0.22484508 -0.05738545
000080 3f 04 09 bf 01 3d 09 bf 65 22 ef be d6 9d 0f 3e
       -0.53522104 -0.5360871 -0.46705928 0.14025053
000090 df bd 32 3d 86 47 bd be 73 24 a1 be 24 79 f1 bd
       0.043638106 -0.3696863 -0.3147312 -0.11790684
0000a0 be 37 c0 be 37 1a c0 be 9b cf 06 bf 4f 87 e9 be
       -0.37542528 -0.3752 -0.5266053 -0.45611045
0000b0 07 53 31 be 06 70 ce be 6e d5 00 3e af 37 e1 be
       -0.17316829 -0.40319842 0.12581417 -0.43987796
0000c0 29 ad 83 3e 09 53 14 3c 7e 4f 06 bf 55 38 9d be
       0.25718048 0.009053 -0.52465045 -0.3070704
0000d0 69 19 b9 be 2f 20 05 bd 05 84 f6 be 1b e9 27 3e
       -0.361522 -0.032501396 -0.48147598 0.16397516
0000e0 46 08 1e bf d5 93 06 bf a2 15 18 be 5a de 88 be
       -0.61731374 -0.52569324 -0.14852002 -0.2673214
0000f0 6b e9 99 be 71 16 1f bf 3b ef ae 3e d6 2b 06 bf
       -0.30060896 -0.6214362 0.34166893 -0.5241064
000100 36 d8 dc 3e ff 93 91 bd 85 fc 89 be bd 85 3e bd
       0.43133706 -0.07108306 -0.2695047 -0.04651426
000110 25 af 39 bf 31 5d 33 be 8b 36 05 bf 41 5d 6d be
       -0.72532874 -0.17516018 -0.5203635 -0.23180105
000120 91 b0 01 bf 90 a9 ea bc e8 97 05 bf 27 e0 d7 3d
       -0.50660044 -0.028645307 -0.52184916 0.105408005
000130 d6 8c e0 be 0d a9 11 3e af c1 38 be f5 f8 a5 be
       -0.4385745 0.14224644 -0.18042634 -0.32416502
000140 5a 66 50 bd 76 af 0e 3e ce 87 70 be 38 bb 37 bd
       -0.05087886 0.1393412 -0.23489305 -0.04485628
000150 87 4b 8a 3b 34 49 76 bd 35 fa 3e be 0c 0d f9 be
       0.0042204293 -0.060128406 -0.18650134 -0.48642766
000160 6c 93 e5 be 67 c4 4a 3e 26 13 3c 3d ce 06 8f be
       -0.44839036 0.19801484 0.0459167 -0.2793488
000170 d9 62 81 be 02 28 9b 3d 1d 4a 5e bd 1f 3a c3 be
       -0.25270727 0.0757599 -0.0542699 -0.3813028
000180 d5 04 d8 be 5c 62 be 3d 77 1f 6b bd 73 75 9d 3d
       -0.42191187 0.09296104 -0.057403054 0.07688417
000190 b1 8a 12 be 84 42 c2 bd ea 09 40 be 89 8a cb be
       -0.14310719 -0.09485343 -0.18753782 -0.3975413
0001a0 9f da 16 3e 8e 38 77 be 11 6c 21 3e 81 88 82 be
       0.14731835 -0.24142668 0.1576388 -0.2549477
0001b0 60 60 00 3d 96 4e 08 3d 51 68 f3 be 69 17 a4 be
       0.03134191 0.03327807 -0.47540525 -0.3204911
0001c0 b0 f3 ca be 26 51 b4 be 58 8b 22 3d 1a 61 ce 3b
       -0.39639044 -0.3521816 0.03968367 0.0062981965
0001d0 2d bf a6 be 41 29 a9 bd 47 4b b0 be b7 2c c7 be
       -0.3256773 -0.08259822 -0.34432432 -0.38901302
0001e0 1c 11 11 bd da 71 ac 3c ef 56 13 bc f4 b8 08 bf
       -0.035416707 0.021050382 -0.008992895 -0.53407216
0001f0 fc ab 80 be ba fb d1 be 3a 50 c6 3d 05 7c 40 be
       -0.25131214 -0.41012365 0.09683271 -0.1879731
000200 ec 80 16 be e3 6b 02 bf eb e4 d3 3c 3b 32 8b be
       -0.14697617 -0.5094587 0.025865993 -0.2718676
000210 7f da 98 be 2c be 1a be f7 97 e6 bd 34 93 bd be
       -0.298542 -0.15111607 -0.11259454 -0.3702637
000220 1c 50 16 bf fd 66 07 bf 1e 45 05 bd 71 40 0b be
       -0.5871599 -0.5289152 -0.03253662 -0.13598801
000230 b1 ce 9d 3d 4c ed 44 be 6a 4d 1e bd cd d4 83 be
       0.07705439 -0.19231147 -0.038648047 -0.25748292
000240 dd 7d 01 be 84 64 99 3e 0b 23 44 3c f8 f7 23 bc
       -0.1264567 0.299595 0.0119712455 -0.010007851
000250 33 88 0f be 4a a6 11 be 4d 03 65 3d 44 57 bf 3d
       -0.140168 -0.1422359 0.05591135 0.093428165
000260 c2 92 bc bd 1c c3 6e 3e 76 71 35 be 37 8b c0 3d
       -0.09207679 0.23316616 -0.17719063 0.09401553
000270 93 ac b6 bd b7 2a 21 be 65 17 b0 be 48 fa a3 3e
       -0.08919635 -0.1573895 -0.3439285 0.32026887
000280 e5 83 99 3e 02 83 8c bc 78 74 19 be 27 7a 22 3e
       0.2998344 -0.017152313 -0.14985836 0.1586691
000290 4d 1a 98 be b4 8b c5 3c 69 3d 97 be 5c 2a 25 3e
       -0.29707566 0.024114467 -0.2953904 0.1612944
0002a0 16 15 86 be 48 ad b2 be bb 2c ad be f6 59 3b be
       -0.26187962 -0.34897828 -0.3382319 -0.18296036
0002b0 fb 29 2a 3e 7d 4f e4 be 85 11 e7 be 14 45 a3 be
       0.16617577 -0.44591895 -0.45130554 -0.3188864
0002c0 15 f8 c4 bd 46 f8 a0 be 14 39 de 3d af ec 9e bd
       -0.096176304 -0.31439418 0.108507305 -0.077599876
0002d0 8a 67 1d 3e 56 4e 4f be 4f 98 6e bd 48 9b 9d be
       0.15371528 -0.20244727 -0.05825072 -0.30782533
0002e0 38 c0 8a 3e bf c0 35 3e 96 fd 41 3e a3 0a e4 3b
       0.27099776 0.17749308 0.18944392 0.006959276
0002f0 4e fc d6 be 70 ac df 3d 60 ca 90 3d 92 02 58 3d
       -0.41989368 0.10921562 0.0706985 0.052736826
000300 ea d5 95 bb bf 02 a8 be 32 fb 02 be 3c 47 91 3e
       -0.0045726197 -0.32814595 -0.12791136 0.2837466
000310 a0 6a 6a 3e 91 a4 66 3e ac e9 0a 3e 18 07 d1 be
       0.22892237 0.22523715 0.13565701 -0.40825725
000320 03 fe 4f 3e e3 fe 07 bc d4 6e 5b 3e a8 cd 47 3c
       0.20311742 -0.008300516 0.21428996 0.012195028
000330 bb 5f 0b be e0 73 a6 bd 7a d0 6b bd d6 a8 20 be
       -0.13610737 -0.0812757 -0.057571866 -0.15689406
000340 8a 03 0f 3e 46 59 a2 3c 3f d4 38 bd d8 be e4 bd
       0.13966194 0.01981796 -0.04512429 -0.11169213
000350 dc 7a 09 be ff 01 72 3e 70 9c 8e 3e eb 8a 20 be
       -0.13425773 0.23633574 0.27853727 -0.15677993
000360 a4 01 c1 be 76 db 97 be ad 0c 50 3c 96 47 87 3e
       -0.37696564 -0.29659623 0.012698335 0.26421803
000370 cd a9 96 3e 10 5c 94 bd 03 3d 72 be 12 3c 39 bd
       0.29426423 -0.07244122 -0.23656087 -0.045223303
000380 d6 8e cd 3d 04 00 d2 bd cb 3c a3 3e ab cc b4 be
       0.100370094 -0.10253909 0.3188232 -0.353124
000390 83 41 22 be d9 13 34 3d 84 3b 90 be ec db e6 bb
       -0.15845303 0.04396424 -0.28170407 -0.0070452597
0003a0 63 8a ce bd 18 7b 0c 3d bc e8 83 bd f1 61 93 be
       -0.10084989 0.03429708 -0.06440875 -0.2878566
0003b0 5b 85 44 be 5e 59 aa be c4 e1 e1 3d 14 54 51 be
       -0.19191496 -0.33271307 0.110293895 -0.2044223
0003c0 51 49 f6 be f1 02 e2 be ba 23 75 3e b8 cd 01 bf
       -0.4810281 -0.4414287 0.2393941 -0.50704527
0003d0 d5 47 b1 be d5 35 fc be b4 dc f0 bd 15 4b 3f be
       -0.34625116 -0.4925982 -0.11760846 -0.18680985
0003e0 74 4d a5 3e 98 82 4e 3e 87 eb 23 3e 14 54 eb bd
       0.32285655 0.20167005 0.16007815 -0.11490646
0003f0 47 21 7b be a1 4b b0 be a9 dc 11 3e 0c e8 a0 3c
       -0.24524413 -0.344327 0.14244331 0.019641899

fc.0.weight f4 [23, 46]
000000 59 c7 ac bd 2f 6a 09 be 02 4a 7f be 81 00 05 be
       -0.0843646 -0.13419412 -0.24930575 -0.12988473
000010 86 77 1f be 6e c7 33 be 7e ae d3 bd aa 01 9f be
       -0.15572938 -0.17556545 -0.10336016 -0.31055957
000020 62 ea 34 be 4a a8 58 be ab e1 90 be 00 c5 91 be
       -0.17667535 -0.21157947 -0.2829717 -0.28470612
000030 0a 99 d6 bd d6 24 29 be ab 1e 8a be b6 75 01 be
       -0.10478409 -0.16517958 -0.26976523 -0.1264256
000040 0c 04 43 be 17 e9 9a bd 2e ea 8f be 31 c3 aa bd
       -0.19044513 -0.075639896 -0.28108352 -0.08338011
000050 89 d1 41 be ac dc 5c be 69 5e e4 bd 37 14 7b bd
       -0.18927588 -0.21568555 -0.1115082 -0.061298575
000060 d7 b0 02 be 87 0a 9b bd 22 59 95 be a6 f0 7f be
       -0.12762772 -0.07570367 -0.29169565 -0.24994144
000070 57 07 44 be 78 67 96 be cd f3 bf bd f2 1a af be
       -0.19143425 -0.29375815 -0.09372673 -0.34200245
000080 b3 07 a3 be 87 6f 86 be d6 c8 96 be 4d 09 ff bd
       -0.31841812 -0.26256964 -0.294501 -0.12452946
000090 fc d5 83 be 8f 6d 83 bd 4a 31 92 be 9d 4e 17 be
       -0.25749195 -0.06417381 -0.2855323 -0.14776082
0000a0 1c e1 75 bd 66 05 cf bd 05 e3 d2 bd 6a a9 19 be
       -0.060029134 -0.101084515 -0.10297207 -0.15006033
0000b0 e5 14 89 be 08 11 51 be de b6 5e be cf e3 bc bd
       -0.26773754 -0.20416653 -0.21749446 -0.092231385
0000c0 94 d7 75 bd 3d 0c 20 3d ef 2c 97 be f3 a7 a2 be
       -0.060020044 0.03907417 -0.2952647 -0.3176876
0000d0 2a 89 44 3d dc 8f aa be b9 32 a9 be 1a 31 f2 3d
       0.047982372 -0.3331288 -0.3304651 0.11825772
0000e0 bc ac 0a 3e c1 d5 8d 3c 80 07 d6 bd e7 e7 aa bd
       0.13542455 0.01731384 -0.10450649 -0.08345013
0000f0 10 f9 f9 bd 7a ad 8f 3d 52 56 dd bd 6e cd ac be
       -0.12205708 0.0701551 -0.1080748 -0.3375048
000100 dd 43 8e be f6 03 89 bc f6 12 a1 be 27 24 3f 3b
       -0.2778615 -0.016725522 -0.3145978 0.0029165836
000110 6a 7f 5b be 0c a7 51 be 80 56 07 ba 89 a9 10 be
       -0.21435323 -0.2047388 -0.0005162731 -0.14127173
000120 0e a9 dd 3d a2 b4 38 3d 18 1d 2c bd ce 27 85 bc
       0.1082326 0.04509414 -0.042019933 -0.016254332
000130 da dd 88 be c1 6f 9a be a9 73 97 be 57 3a 49 3d
       -0.2673176 -0.30163386 -0.2958043 0.049127903
000140 0d 40 32 3d 97 55 f5 bd b2 8e f3 bc d1 83 24 3d
       0.043518115 -0.119792156 -0.029731128 0.040164772
000150 df fa 9a 3d 8d 94 a2 be ac f8 b2 bd e6 76 f9 bd
       0.07567381 -0.3175396 -0.08738837 -0.12180881
000160 b1 6c b1 bd 14 54 75 be ec 10 bc 3c 6d 5c e7 bd
       -0.08663309 -0.23957855 0.022957288 -0.11296926
000170 fb 04 02 bd b0 db 6d 3d ef a5 13 3d b3 56 14 be
       -0.03174303 0.05807084 0.03604692 -0.14486198
000180 03 73 93 bc 2c c3 0f be 9e 50 02 be fb ec 3a bd
       -0.017999178 -0.14039296 -0.12726066 -0.04563616
000190 44 04 2c 3e 39 a8 3a bd 5a 25 ce 3d d1 fe 47 3e
       0.16798502 -0.045570586 0.10065718 0.19530798
0001a0 de 13 ec bc af f7 f8 3d 15 7d 93 3b 04 3f f2 bc
       -0.028818067 0.12156617 0.004500995 -0.029571064
0001b0 6f 69 3c be fb ca e5 3b 96 9f aa bd 7e 2f 39 3d
       -0.18399595 0.0070127225 -0.0833122 0.045211308
0001c0 23 08 a0 bd 53 fd 90 3e d1 77 73 3e 8e 69 b5 3d
       -0.07814052 0.2831827 0.23776175 0.088580236
0001d0 6c b6 c8 3d 3c 72 4a bd b3 4c 2d 3e 81 d3 73 3e
       0.09800419 -0.04942535 0.1692379 0.23811151
0001e0 ca 53 73 be 4a 3b 7f 3c 89 e1 f1 3c cb c1 0b 3d
       -0.23762432 0.0155781 0.029526489 0.034120362
0001f0 40 66 c5 bc c6 f2 73 3e 60 f5 2c 3e d9 e3 77 3d
       -0.024096608 0.2382308 0.16890478 0.060520027
000200 75 ab 30 3e db 1e 88 3d ef 7a de 3c 30 00 ab 3d
       0.17252906 0.0664651 0.027158229 0.08349645
000210 7e 82 a8 3c 4e d4 56 3d ae 7d 41 3e 88 4b 17 3e
       0.020570036 0.052448563 0.18895599 0.14774907
000220 12 a4 81 3d 63 c3 84 3e 6f 77 12 3e 1b 21 79 3e
       0.06330122 0.25930318 0.14303373 0.24329035
000230 50 a4 af be 98 37 58 3e d0 46 2e be 24 a7 df 3d
       -0.34305048 0.21114957 -0.170192 0.109205514
000240 bc a2 a4 3d ad bb 39 3e 84 c3 9b 3d 6c 08 9b 3d
       0.080388516 0.18137999 0.07605651 0.07569966
000250 4f 26 de bc 42 12 1b be da 54 65 be 8c d1 60 bd
       -0.027117876 -0.15143684 -0.2239565 -0.05488734
000260 7d e6 fa 3d 83 60 8d 3d 47 fa 46 bd 21 1c 78 3e
       0.122509934 0.06903174 -0.048578527 0.2422948
000270 6a 86 30 3e ad 1c 00 3d c9 a7 4a bd aa 90 82 be
       0.17238775 0.031277347 -0.04947642 -0.25500995
000280 e9 99 5b 3e eb 5b ce bd 3f fc 4e 3e 73 3f 43 be
       0.21445431 -0.10076126 0.20213412 -0.19067173
000290 c9 01 a9 3c 50 ce 55 bd 82 dd 90 3e 5b 9b f0 bd
       0.020630734 -0.052198708 0.28293997 -0.11748382
0002a0 e1 6f a0 3e ed 72 5e bb 55 d3 e9 3d e4 89 0b bd
       0.31335357 -0.0033943013 0.114172615 -0.03406705
0002b0 95 3e 50 be 68 78 6d 3d 4d f9 f5 3d f7 a9 98 3e
       -0.20336373 0.057976156 0.12010441 0.29817173
0002c0 31 2b 03 3d 91 21 ad 3d 55 36 7a 3e 70 67 16 bd
       0.032023612 0.08453668 0.24434789 -0.03671974
0002d0 10 ec 61 3c 7c 6c 4f bd 88 5f a6 3c 89 27 e0 3d
       0.013789192 -0.050640568 0.020309225 0.10945041
0002e0 e3 5f cf bd 41 cc 0a be 1f 59 22 3d 87 42 c2 bd
       -0.10125711 -0.13554479 0.039635774 -0.09485345
0002f0 4f c3 7b be 9f d5 53 be 37 2b da 3c 9f 9e c1 bd
       -0.24586223 -0.20686959 0.026631935 -0.09454083
000300 2d d0 88 be 1c c3 49 bd 0c 66 13 bd 1c 85 73 be
       -0.26721326 -0.049258336 -0.03598599 -0.23781246
000310 c8 af d6 bd a6 9c 43 be ce 89 f7 3d 93 a5 1c bd
       -0.10482746 -0.19102725 0.12086831 -0.03824384
000320 f4 3e 79 be 4b 82 a1 bd 60 6f 86 be ce 6b a3 bd
       -0.24340421 -0.078861795 -0.26256847 -0.079795465
000330 c7 41 e1 bd 60 81 e4 bd c4 43 ac be 47 2f 86 be
       -0.10998874 -0.11157489 -0.3364545 -0.26207945
000340 18 76 43 be 0e 64 fb bc 83 88 ce bd 97 83 2a be
       -0.19088018 -0.030687358 -0.10084631 -0.1665176
000350 70 50 08 be 31 ef 70 bd f2 1b 43 be 52 41 74 be
       -0.13311934 -0.05882186 -0.19053629 -0.23853043
000360 17 e6 f3 bd f1 2f ad 3d d9 19 92 bd 92 79 28 bd
       -0.119091205 0.0845641 -0.07133836 -0.041131563
000370 18 8b 40 be 07 89 7f 3d db 42 95 3d 96 4e 18 be
       -0.1880306 0.06238654 0.07288142 -0.14873728
000380 a6 43 8d be 8d 11 9c be db 98 c5 bd f5 4b a7 be
       -0.27590674 -0.3048214 -0.096482955 -0.32675138
000390 77 d8 18 3c 01 ef 0f be e5 7d 17 be 6b 25 6f be
       0.009328953 -0.14056017 -0.14794119 -0.23354118
0003a0 29 89 dd 3d ec 77 24 be a9 cf f0 bd 1f ba 60 be
       0.10817177 -0.16061372 -0.11758358 -0.21946
0003b0 34 3c 73 3c 43 7e f8 bd 4c 80 51 be 48 d0 79 be
       0.0148458965 -0.121334575 -0.20459098 -0.24395859
0003c0 a5 f6 09 be 7d e9 83 be 83 9c ca bd a4 43 96 be
       -0.13472994 -0.25764075 -0.098931335 -0.2934848
0003d0 c9 c5 bf 3d 09 1f a1 3c d9 19 06 be dd 82 9b bd
       0.093638964 0.019668119 -0.13095798 -0.075933196
0003e0 91 88 f3 bd 55 b3 e1 bd f5 47 88 be 44 0c 3a bd
       -0.11891282 -0.11020533 -0.266174 -0.045421854
0003f0 1a b5 a4 be 1b 2d c6 bd ac 6b 54 be 43 11 1e 3d
       -0.3216942 -0.09676572 -0.20744199 0.03859068

fc.0.bias f4 [23]
000000 ac d2 e0 bd fd 26 5f be d5 20 4a be 8a 0c f4 3e
       -0.109776825 -0.21792217 -0.19739087 0.47665817
000010 8b bd 47 be 28 24 9f be 96 ae 48 be bb 8d 04 be
       -0.19505899 -0.31082273 -0.19597849 -0.12944691
000020 ea 4a e5 bd f1 b4 73 3c 0e b1 19 be ea c9 aa be
       -0.11195929 0.014874683 -0.15008947 -0.33357173
000030 28 ee da 3e a2 2b dd 3e b8 b8 2a 3e 91 07 25 be
       0.42759824 0.43197352 0.16672027 -0.16116168
000040 2e cc f3 bd 5a 99 99 be 29 29 7f be db 34 ba 3e
       -0.119041786 -0.2999981 -0.24918045 0.3636845
000050 26 21 e0 3e 07 5d 24 be 30 e5 3c be
       0.4377529 -0.16051112 -0.18446803

fc.2.weight f4 [1, 23]
000000 85 6a ac 3d 6e a3 d2 bb c9 bd af bd 77 24 32 3e
       0.084187545 -0.0064281737 -0.085811205 0.17396723
000010 2e 84 46 3e 99 9d 1a 3e f3 88 47 bc 59 4d 2b 3e
       0.1938636 0.15099181 -0.012178647 0.16728725
000020 e4 88 1c 3d 6b b5 43 3e de 51 14 3e cc 3f e9 bb
       0.038216487 0.19112174 0.14484355 -0.007118201
000030 72 d6 26 3e 79 96 06 3e 75 2e 70 3c bc 3a 4e 3d
       0.16292742 0.13143338 0.014659514 0.050348982
000040 57 6d 3c 3e 5b 1a 9a 3b 43 30 43 3e 87 a3 58 3e
       0.18401085 0.004702849 0.19061379 0.2115613
000050 26 4a 0f 3e 86 b7 84 3d 5d ea 34 3e
       0.13993129 0.06480317 0.17667527
