models/gnn-recsys-model.pt (torch, 35746 bytes, 5 tensors)

conv1.bias f4 [16]
00000000: 4170 543d d455 d6bc 04d0 683d a847 1dbd
00000010: 1ad7 923d 9542 26bd aaa3 ccbc c423 803d
00000020: b629 213d 0e7c 42bd 09be db3b f357 4f3d
00000030: 22f1 9e3d 0d4b 653d 5c28 b83d 5b8d 0f3d
0.051864866 -0.026163973 0.056839004 -0.038398415 0.071699336 -0.04059084 -0.024980385 0.06256822
0.03934642 -0.04748159 0.0067060036 0.050620984 0.07760836 0.055979777 0.08992073 0.035046916

conv1.lin.weight f4 [16, 495]
00000000: 7b13 c43c 1616 00be 9a0a 94bd 15f4 613d
00000010: de4e f9bd 065e a93c a4aa 6ebd 9ca1 c8bd
00000020: 3abd 02be e883 ddbd 11b1 27bc adb7 45bd
00000030: 7b8a cfbd bbbe a83b 0b42 1ebb b39c 84bd
00000040: a91c 11bd d659 0a3d 2325 b63d f4a5 5dbd
00000050: d750 343e 0a90 75bd a7e2 0a3e 7372 f1bd
00000060: 61fb fdbd 31f9 d2bd e838 ce3d 314e 89bd
00000070: ec60 00bd 9522 e9bd e064 6a3e c191 093e
00000080: 3dee 2c3e ced1 1cbe d7ce 203e 3ca5 3e3d
00000090: 9db1 22bd f340 01be c078 68bd cbdb 38be
000000a0: 6269 23be fc19 8dbd 9a0e 0b3e 3f84 e13d
000000b0: 9bc9 93bd 90c8 8abd b859 90bd 8ac4 22be
000000c0: fbc3 71bc 3d74 e8bd 3a3a 37be 2bf1 22be
000000d0: 22df bbbd 0ec0 b4bd 4a37 eabd 4d3f 983d
000000e0: 27da c5bd 1edf bcbd 0ce4 eebd fa49 39be
000000f0: 84a9 14be 60a3 05be a6a4 a63d e0b2 373e
00000100: 417d 40bd f677 edbc 79a9 0f3c adbe 22bd
00000110: 27e1 dabd ce12 2abe 5193 3ebe cea7 07be
00000120: c751 1cbe cc92 623e 3d95 0a3e 2d08 d73d
00000130: 23b6 dcbd a172 7cbd 50f8 af3c 8d4b 6dbc
00000140: de16 e8bc 5eea 403e 998f 2fbe 8fdf 13be
00000150: 8700 fbbc efde f73d 7457 f83d 743b 87bd
00000160: e9bd 95bd fb78 993d aa31 c83d 69b6 a53d
00000170: 179b 4b3e 4173 033e fcbb b4bd d022 c13d
00000180: e711 e93c 50e9 223c 5bb8 13ba 7706 10be
00000190: 1798 1ebd 1456 62bd 7e24 0d3e ce25 18be
000001a0: 17ee dbbd 3fdc c43c f68d e6bd 44a7 54bd
000001b0: 6c62 ccbd 8af8 dcbd 48f7 303e 5fed b4bd
000001c0: 2bf0 c3bd f05f ae38 8386 063d 46da eebd
000001d0: 4678 66bc 0deb 9dbd 2176 12be cfec 87be
000001e0: 4ef6 3dbe c061 74be 47d1 90bd ccaa ca3d
000001f0: dcee f3bc ea61 41be 3600 163e e24f a83d
00000200: f356 eebd f444 e9bd 927d a2bc 1f02 b4bd
00000210: 9514 91bd 84a0 1ebe 8804 2cbe fbb7 22be
00000220: 4ff6 27bd d8ee 20bc b6c8 403d 8cef 84bd
00000230: 065a b83c e32d 093e 3acc 1dbe 26a1 30be
00000240: 8e6e 00be 9bdc 06be 9a18 253d 58e8 d23d
00000250: 170a 39bc 92b1 6dbd 3bc7 2c3e 0396 213e
00000260: 2f48 39be af0d dc3c 38bf c8bd d671 6fbd
00000270: 54b3 083d a218 b03d e8fa 30bd 89b1 d2bd
00000280: ee43 f6bd e79f 08be b7e9 33bc 52dc cebc
00000290: f73d 1ebd 6ca7 acbd f2c4 21be d7b1 37bc
000002a0: 64bd f4bd 7e2c 3cbe 8bcf 11be 98bb 16be
000002b0: dcfc dcbd e7fe 07be ab7e 14be 6108 0bbd
000002c0: 5c9a 15be 5bad 16be b028 b2bd baef bcbc
000002d0: 179f 733d 4f06 efbd 8d33 3bbe eadb 41be
000002e0: ba9f c73c 927d cbbc 38a4 763d 7545 5abe
000002f0: 1788 eebd c793 f3bd d9b2 39be 82ca b7bd
00000300: 454a 8f3c 4c70 babd 65d3 0a3d a5dd 0c3e
00000310: fbac 703d 42e1 1bbe 2a95 fe3b 9221 663d
00000320: 1758 1d3c 41cf 403c 7384 cb3c acdd 103d
00000330: bb3a 033d 44be 253e dc7d 1f3d 0667 42be
00000340: 8102 e0bd cf5c 1cbe 9448 8abd f144 d03d
00000350: 8386 aebd b19b 31be c95d 0dbe 078e 6c3c
00000360: 3911 cfbd 40d5 8f3d f459 2f3d 7ec9 b5bc
00000370: 0734 24be 82a0 c83c f677 c9bd 8bee 12be
00000380: 487d 0dbe 6cea 67bd b90d e7bd d5fe 353e
00000390: 007d c4bd 8baa e53c 2b6e 08bd 5d58 babd
000003a0: 0dc4 32be 1be2 783a 4b36 a63c 87f0 d7bb
000003b0: 466a d8bb 2f7a 7b3c a452 a53b 516d ef3c
000003c0: 8908 d7bd 7819 84bd abc3 013e fd5b 90bd
000003d0: 5661 dc3b 4111 bc3c b1fe 4e3e b97b fabd
000003e0: 1b70 3bbe 1328 33be b291 cbbd 86bc 2ebe
000003f0: e703 3cbd 639e cbbd 0ee1 8cbd d501 34be
0.02393507 -0.12508425 -0.072285846 0.055164415 -0.12173246 0.020674717 -0.058268204 -0.097964495
-0.12767497 -0.10816175 -0.010235087 -0.04827087 -0.10133835 0.00514969 -0.0024148251 -0.064752005
-0.035427723 0.03377708 0.08893802 -0.054113343 0.17608963 -0.05995182 0.13563024 -0.117894076
-0.12401462 -0.10301436 0.10069448 -0.06704367 -0.031342432 -0.11383549 0.22890043 0.13434507
0.16887756 -0.15314409 0.15703903 0.0465443 -0.039720166 -0.12622432 -0.05675578 -0.18052594
-0.15958169 -0.06889722 0.13579789 0.11011552 -0.072161876 -0.067765355 -0.070483625 -0.15895286
-0.014756198 -0.11350296 -0.17893305 -0.15912311 -0.091734186 -0.08825694 -0.11436327 0.07433949
-0.0966075 -0.09222244 -0.1166459 -0.18094626 -0.1451779 -0.13050604 0.08136873 0.17939329
-0.04699445 -0.028987866 0.008768433 -0.039732624 -0.10687476 -0.16608736 -0.18610884 -0.13247606
-0.1526557 0.22126311 0.13533492 0.10499606 -0.10776927 -0.061632756 0.02148071 -0.014483345
-0.028331216 0.18839404 -0.17144622 -0.1444075 -0.0306399 0.12103068 0.12126055 -0.06603137
-0.07311613 0.07493778 0.09775098 0.080914326 0.19883381 0.12836935 -0.08824918 0.09430468
0.02845092 0.009943321 -0.0005635076 -0.14064966 -0.038719263 -0.05525787 0.13783452 -0.14858171
-0.107387714 0.024030803 -0.11257546 -0.05191733 -0.0997971 -0.107895926 0.1728183 -0.088343374
-0.09567293 8.314836e-05 0.032843124 -0.11662726 -0.014066761 -0.07710848 -0.14302875 -0.26547858
-0.18550989 -0.23865414 -0.070711665 0.09895858 -0.029776983 -0.18885008 0.14648518 0.082183614
-0.11637678 -0.11390105 -0.019835267 -0.08789467 -0.07084004 -0.1549092 -0.16798604 -0.15890495
-0.041006383 -0.00982257 0.047066413 -0.064910024 0.022503864 0.1339641 -0.15409938 -0.17248973
-0.12542173 -0.13170092 0.040306665 0.10298222 -0.0112939095 -0.058030672 0.16872875 0.15779881
-0.18093942 0.026861994 -0.09802097 -0.05845817 0.033374146 0.08598448 -0.043208033 -0.102877684
-0.12024675 -0.13342248 -0.010981015 -0.025251541 -0.038633313 -0.08430371 -0.15797785 -0.011211834
-0.11950186 -0.18376347 -0.14239328 -0.14719999 -0.107904166 -0.13280831 -0.14501445 -0.033943538
-0.14609665 -0.14714567 -0.08699167 -0.02306353 0.05947789 -0.11671125 -0.18281384 -0.18931547
0.024368156 -0.02484015 0.060215205 -0.21315558 -0.11647051 -0.11893421 -0.18134631 -0.08974172
0.01749147 -0.0910345 0.033893008 0.13756426 0.058758717 -0.15222648 0.0077692466 0.05618436
0.009603522 0.011768163 0.02484343 0.035367653 0.03203843 0.16185862 0.03893839 -0.18984613
-0.109379776 -0.15269779 -0.067521244 0.101693995 -0.0852175 -0.17344548 -0.13805307 0.014438159
-0.10110707 0.07023096 0.042810395 -0.022190806 -0.16035472 0.024490599 -0.09837334 -0.1434881
-0.13817322 -0.056620046 -0.11281914 0.17772992 -0.09594154 0.028035423 -0.03330819 -0.09098885
-0.174576 0.00094941416 0.02028956 -0.0065899524 -0.0066044657 0.015348955 0.005045252 0.02922693
-0.10499675 -0.0645017 0.12672298 -0.07048795 0.0067254705 0.022957446 0.20214345 -0.122306295
-0.18304484 -0.17495756 -0.099398986 -0.17064103 -0.04590216 -0.09942319 -0.06878863 -0.17578824

conv2.bias f4 [16]
00000000: bb34 b93d 3186 a8bd 50b8 d43d 7b01 7abd
00000010: 9d98 423e 49a5 fd3d f218 23bd c941 abbc
00000020: dae0 8eba 375a e33d 2e62 b33d 87fc 173e
00000030: f050 46bd b091 f93d 0c5d 943c fbc9 a63d
0.09043261 -0.0822872 0.10386717 -0.061036568 0.1900353 0.12385041 -0.03981871 -0.020905392
-0.0010900751 0.111011915 0.08758961 0.14842425 -0.04841703 0.12185991 0.018110774 0.081439935

conv2.lin.weight f4 [16, 16]
00000000: ca2b 753e 1155 aabe e91d 673e ad22 c6bd
00000010: 9c61 153e a264 82be 2f4a 91be 0b5b 74be
00000020: c228 8a3e effd d6bb 7629 b03e 3479 493e
00000030: 2b26 ca3e 4b2d f1bb 1a32 a9bd 08f8 b5bd
00000040: f4fc d53e 1d6b b93e 678c 20be bb8d c1be
00000050: 60e4 f23c 03d8 90be 0591 29be 7552 6d3e
00000060: 5b94 5cbe 3d1a adbe 7023 65be 041b c23d
00000070: 4b4f dbbd c69c 913a 028a b03e 4dbb 983e
00000080: 40b2 3c3d 0895 8a3e 6b18 cd3e 67b9 b8bd
00000090: bc90 333e 7ca7 6abe 6c85 453e 401d 2b3e
000000a0: dcda ab3e 04df 96be 3959 763e d47f b03e
000000b0: 05c7 ab3d 63fc ba3e 8936 bf3e c5a2 3dbd
000000c0: b005 8e3e a366 ae3d 4b69 d23e 7735 2f3e
000000d0: b2b6 c9bd f0fe 83bd 4e06 3abe 172b 0d3d
000000e0: d7e7 9e3d 32be 0c3e 69e1 723c 3646 d9be
000000f0: e1e0 2fbe 7885 9e3e d75e 223e a99e 703c
00000100: 1169 e03d c089 c93e bdf0 053e 42d1 f6bd
00000110: 129a 24be c870 bbbb dc93 c0bb 3abe 9d3e
00000120: f786 abbe 14af b1be 5fa7 8bbd 2c65 3bbe
00000130: 4d50 753e 1bfe 5a3e e962 70be dc75 56be
00000140: 1cdb c8bc c46d 03bf 8a4f 3ebe a0c7 b0bd
00000150: 9ef3 c53e d7d7 953e 840d a9bb 54cb 84be
00000160: f3b3 173d 65f7 c2be 64ec ad3e 94cd 84be
00000170: 4da4 91bc e0eb a03d b46b f93e b271 dbbd
00000180: 1605 17bd db57 9c3d 6145 b8be fcb4 263e
00000190: fc8a 223e b707 3b3d 561a 29be 5f52 6dbe
000001a0: 9c0f 703e 1bf8 fb3e 87ff 94be 142a 1fbd
000001b0: 823c f7bc 4c02 4f3e 4c33 c73b ea63 97bc
000001c0: b923 b53d b7b0 bf3e 47a9 54bd 48a9 aa3e
000001d0: 8503 903c 45c9 e63d 0069 d6be 6ab6 a53d
000001e0: 0cd5 b3be 5da3 343e 8399 ec3c 070d e4bd
000001f0: 72be 00be eccb c83d 7022 8fbe c0f2 dfbe
00000200: 4b9f aabe 9d37 0cbc 83dd 8f3e 83ca 0b3e
00000210: cbdd b33e a99b 8dbd a338 393d 49a8 71be
00000220: e362 943e b885 15be 7cc3 64bd ff6a 47be
00000230: 1b03 0abe bee9 023e 8413 53be e42a 63be
00000240: f6b1 0d3e 0227 1a3e 214a e6bd a607 8f3e
00000250: e722 b03e 6796 96be 6c0b 50bd d44c dd3e
00000260: abdf 6ebe 5cdf 3fbd c44b 80be 5f16 eabc
00000270: c07c 813d 4904 043d 314d 4f3e 35c6 c5bb
00000280: 716d 173e fb4a b83e 44f2 473e 68c1 cf3d
00000290: 280b edbc 1f51 6d3e 566f ea3d ca6e babd
000002a0: 337b bbbd 5642 933d 5936 973e 1636 cf3e
000002b0: 9ba4 ad3e b58d c63e df39 e33e f89b 6fbc
000002c0: f15c da3e 81e7 873e 8614 40be 55f2 d8be
000002d0: 479d 883c 58eb 793e 4d05 e2be ebe2 16be
000002e0: 3f90 c1bc 50d8 923e 9eef 28be 0435 3e3e
000002f0: 56e0 2d3e 858e 54bd 6a10 8ebd b6c8 943d
00000300: 19b8 b53e 9274 b4be e444 f6be c79d d7be
00000310: bcca f7be a279 a33e db44 f03c 64ce 00be
00000320: f0d3 9dbd 9f58 193e b87d 973e ed69 343d
00000330: 65ec 353e 4417 4ebe 6040 9c3e 7917 a2be
00000340: b2ea debc 189c bc3e 5182 af3e 5936 c9be
00000350: 6de7 563e 41f2 6f3d 73a2 68be 0e24 1cbd
00000360: ed8c 69be e2ad 53bd 73e2 29be 6956 bb3e
00000370: 583c e2bc 9881 163e 19a2 343e 471d 2f3d
00000380: 5e7c 6abe c335 3bbe e4c2 5d3e 53f7 2cbe
00000390: d6e0 633d ef4b bc3e 4a1f b3be f409 88bd
000003a0: 9875 aa3e 9973 6e3e d7bf a13e 8555 5e3e
000003b0: df9c 9bbe a915 353c 03c0 b9be e408 323e
000003c0: f0e1 b63e b5c0 80be 218f be3e 825a a1be
000003d0: e7d6 993e 9a27 a83e 8a57 cabc 872f e43e
000003e0: 9b68 8d3e 24e6 4abd f5f5 88bd 9c49 643e
000003f0: febb e3bc 2445 d93e ffdf c63e 3015 9d3e
0.23942485 -0.33268026 0.22570004 -0.09674583 0.14588016 -0.25467402 -0.2837691 -0.23862855
0.2698422 -0.006561033 0.34406632 0.19675142 0.39482245 -0.0073601357 -0.08261509 -0.08885199
0.4179455 0.36214533 -0.15678559 -0.37803444 0.029649913 -0.28289804 -0.16559227 0.23175986
-0.21540968 -0.3380908 -0.223768 0.09477809 -0.10708483 0.0011109344 0.34480292 0.298304
0.04606843 0.27066827 0.40057692 -0.09019738 0.1753568 -0.22915453 0.19289178 0.16710377
0.33565414 -0.29467022 0.24057473 0.34472525 0.08387569 0.3652068 0.37346295 -0.046297807
0.27738714 0.0851567 0.41095957 0.17110239 -0.098492995 -0.0644511 -0.18166468 0.03446492
0.07759064 0.13744429 0.01482425 -0.4243638 -0.17175628 0.30961204 0.15856491 0.014686265
0.1095754 0.39362907 0.13080116 -0.120516315 -0.16074398 -0.0057202317 -0.005877001 0.30809194
-0.33501408 -0.34703887 -0.06819033 -0.18300313 0.23956414 0.21385996 -0.23475231 -0.20943397
-0.024518542 -0.51339364 -0.18585029 -0.086318254 0.38662428 0.29266235 -0.005159082 -0.25936377
0.037036847 -0.38079372 0.33969414 -0.25938094 -0.01777854 0.078574896 0.48714983 -0.10715045
-0.036870085 0.076339446 -0.35990432 0.16279978 0.15873331 0.045661654 -0.16513953 -0.23175953
0.23443455 0.49212727 -0.29101202 -0.03885849 -0.03018022 0.2021572 0.006079113 -0.01848026
0.08844704 0.3743951 -0.051919248 0.33332276 0.017579803 0.11268858 -0.41876984 0.08091433
-0.3512348 0.17640443 0.028881794 -0.11135297 -0.12572649 0.0980452 -0.2795596 -0.4373989
-0.33324656 -0.008558181 0.28098688 0.13651471 0.35130152 -0.069144554 0.04522003 -0.23599352
0.28981695 -0.14601791 -0.05585049 -0.1947441 -0.13477747 0.12784478 -0.20612913 -0.2218433
0.13837418 0.15053943 -0.11244608 0.27935523 0.34401628 -0.29411623 -0.050792143 0.43222678
-0.2332751 -0.04684387 -0.25057805 -0.02857512 0.06322622 0.03223065 0.2024429 -0.006035591
0.14787842 0.35994706 0.19526011 0.10144311 -0.028935984 0.23175476 0.11447017 -0.091031626
-0.09154358 0.07190387 0.2953365 0.40470952 0.33914647 0.3877999 0.4438009 -0.014624588
0.42649034 0.2654381 -0.18757829 -0.42372385 0.016676558 0.24406183 -0.4414467 -0.14735
-0.023628352 0.28680658 -0.16497657 0.18574911 0.16980109 -0.05189373 -0.069367245 0.07264845
0.35492018 -0.35245186 -0.48099434 -0.42112562 -0.48396862 0.31928736 0.029329708 -0.12578732
-0.077064395 0.14975213 0.29588103 0.04404633 0.17765959 -0.20126063 0.30517864 -0.31658533
-0.02721152 0.3683784 0.3427911 -0.39299276 0.2098672 0.05858064 -0.2271822 -0.038120322
-0.22807665 -0.0516795 -0.1659029 0.36589363 -0.027616665 0.14697874 0.1763996 0.04275253
-0.22899005 -0.18282227 0.21656376 -0.16891222 0.055634342 0.36776683 -0.3498481 -0.066425234
0.33292842 0.23286285 0.31591675 0.2171231 -0.3039312 0.011052527 -0.36279306 0.17386204
0.35719252 -0.25147024 0.37218574 -0.31514364 0.3004677 0.32842714 -0.024699945 0.4456751
0.2761887 -0.049535885 -0.066875376 0.22293705 -0.027799603 0.42435563 0.3884277 0.30680227

fc.weight f4 [1, 32]
00000000: 93c0 393e b5d3 9e3d caed 543e c9be 7a3d
00000010: a462 0d3e 67ef 743e 4bd8 0ebe dabb c3bd
00000020: d85f 203e dcbf 9d3e 9c3f 1d3e a14a 4f3e
00000030: 1d9b cebd 327d 673e 59cc d2bd 02bc d13d
00000040: 3546 503e cdd3 1abe a355 b1bd ed32 2ebe
00000050: ea3f 7e3d 5798 b53d 8218 ffbd cfd5 eebd
00000060: 48d5 cbbd 7f83 053e e1d9 683d f15e 253c
00000070: 4054 e1bd d28f 60bd e4c7 ca3d f8ef 4d3e
0.18139867 0.07755224 0.20793834 0.061217103 0.1380716 0.2391945 -0.13949697 -0.09557314
0.15661561 0.3081044 0.15356296 0.20243312 -0.10088179 0.22606352 -0.102928825 0.10240938
0.20339282 -0.15119858 -0.08658912 -0.17011614 0.062072672 0.08866947 -0.12455846 -0.116618745
-0.099527895 0.13038443 0.05684841 0.010093437 -0.110023975 -0.054824658 0.09901407 0.20111072
