models/gnn-recsys-model.pt (torch, 11500 bytes, 7 tensors)

gnn.0.bias f4 [4]
000000 cd 3f 4c be 0b 50 72 be 6f f3 c9 3d 80 40 a7 be
       -0.19946213 -0.23663346 0.098608844 -0.32666397

gnn.0.lin.weight f4 [4, 495]
000000 42 cd 1f bd 0a 8b 46 3d 96 60 e8 3b 42 21 c2 3c
       -0.03901411 0.04847244 0.007091592 0.0236975
000010 3c f4 11 3e 76 a5 ac 3d 99 b4 be 3d af 02 ee bd
       0.14253324 0.08429997 0.0931179 -0.116216056
000020 07 e5 cb 3d 62 2b 0d 3e 16 7c 13 3e 12 0f 3d 3d
       0.09955793 0.1378608 0.14402804 0.04615695
000030 ff d9 fe bd cd de 0b 3d fe 91 00 be f0 ad 9d bd
       -0.12443923 0.034148026 -0.12555692 -0.076991916
000040 59 9b 1b 3d 57 bd 3d bd 07 6b a3 bd d3 76 b7 bd
       0.037989948 -0.046323147 -0.07979398 -0.08958211
000050 20 e9 56 bd 05 0b b4 bd 5c 48 58 3d c0 9a 70 3b
       -0.05246842 -0.08791164 0.052803382 0.0036713332
000060 33 1c 30 3d 94 84 81 bd 59 a0 31 bd 70 c5 29 3d
       0.042995643 -0.063241154 -0.04336581 0.041448057
000070 9d 5a 3c 3c 7d 97 d7 bd 50 d4 26 be 59 02 87 bd
       0.011496213 -0.10526941 -0.16291928 -0.06592245
000080 88 cd e4 bd 26 12 09 bb 2e 01 cc bd 6f 5e 89 3d
       -0.111720145 -0.0020915358 -0.099611625 0.06707465
000090 5a 57 3b be b5 31 74 3d c2 25 79 bc a5 3b 90 bd
       -0.1829504 0.059617717 -0.015206756 -0.07042626
0000a0 d8 48 67 3e b9 e8 57 3d ea 3c b4 3d 90 da 9d 3d
       0.22586381 0.052712176 0.08800681 0.07707703
0000b0 6f 95 cd 3e 93 ff a2 3e e5 0d b8 bd 74 32 1d bc
       0.4015307 0.31835613 -0.08987025 -0.0095945485
0000c0 84 48 2a be 03 90 b0 3e 45 e2 6d 3e fc b9 86 3e
       -0.16629225 0.34484872 0.23230846 0.2631377
0000d0 ee 5d 98 3e 8f 85 d4 3e 48 06 72 bd 6f 21 2f 3c
       0.29759163 0.41508147 -0.05908802 0.0106891235
0000e0 9b 31 5f bd 46 56 84 bd f4 ef e0 bd 33 14 07 bc
       -0.054490667 -0.06461768 -0.109832674 -0.008244562
0000f0 1b 09 63 3c 06 ea e3 3d 7b c2 ea bd a9 7c 27 be
       0.013857151 0.11128621 -0.114628755 -0.16356148
000100 ee fb f0 bd 2b 37 77 bd b9 d3 e5 bd b3 a8 7f 3d
       -0.11766802 -0.060355347 -0.112220235 0.062416743
000110 53 af 4c be 71 35 7a 3e 53 c0 d9 3c 4b 75 1f 3e
       -0.19988756 0.24434449 0.026580965 0.15572087
000120 6a 2a 2c be 16 cb b0 3d b0 2a ea bb cf c3 18 3e
       -0.16813055 0.086324856 -0.007146202 0.14918445
000130 2b 3c ac bc bb d0 f2 bd b7 dc ee bd e6 53 17 be
       -0.021024784 -0.118562184 -0.11663192 -0.14778098
000140 0d 86 21 3d 16 e2 91 bd 61 4d 96 bc e6 65 91 3d
       0.03943448 -0.071232006 -0.018347444 0.07099514
000150 bc 31 99 3d 10 7c ff bd 0d fe 59 bd 11 e2 da bc
       0.07480189 -0.12474835 -0.053220797 -0.026719125
000160 34 27 0c 3e 67 59 21 be 59 90 ac 3c a0 ca 59 bd
       0.1368683 -0.1575676 0.021064924 -0.053171754
000170 05 2f bc 3d f3 bd 0c 3e cd 35 a0 3c 95 8c d0 bc
       0.09188656 0.13744335 0.019556904 -0.02545766
000180 e2 ae ec bd 6a 89 e0 bd 36 e0 cc 3d 89 cc bb 3e
       -0.11556794 -0.1096371 0.10003702 0.36679485
000190 a5 11 af bd ca b9 e0 3c 09 fe 66 3b b8 ad 76 3d
       -0.08548287 0.027432341 0.0035246632 0.060224265
0001a0 07 3c d4 3e 53 f5 db 3c 6c f2 a8 bb 9f 28 76 3c
       0.41452047 0.026850378 -0.005155852 0.015024333
0001b0 c4 68 34 3e 34 90 87 bd 5d 75 2d 3c 42 a4 85 bd
       0.1761809 -0.066193014 0.010587064 -0.0652547
0001c0 b8 e9 5a 3a f3 d4 09 3d c7 a3 02 be 84 9d 07 3e
       0.0008350867 0.03365035 -0.12757789 0.13243681
0001d0 4b 88 a3 39 b7 e7 87 bd 28 4c 8f 3d 8a 72 29 3d
       0.0003119133 -0.06635993 0.069969475 0.041369
0001e0 0e 56 98 bb 6f 24 80 bc 22 d1 96 bd 3b e6 fd 3d
       -0.0046489304 -0.015642373 -0.07364108 0.123974286
0001f0 9a 4d 39 be 49 ad 57 bd 97 76 39 bd a8 3c 4b 3d
       -0.18096009 -0.052655492 -0.04527911 0.049618393
000200 3c f4 f8 3c 40 2a 5a bd 38 a0 ad bd d4 f3 7a bd
       0.030389898 -0.05326295 -0.08477825 -0.06126769
000210 8f ea 87 3d e6 65 8f bc fc eb 01 be 96 ec 08 3e
       0.066365354 -0.017504644 -0.12687677 0.133715
000220 98 f7 39 be 65 b9 70 3c c4 4d 9e bc e2 b2 36 3e
       -0.18160856 0.014692639 -0.01932419 0.17841676
000230 9b 13 64 be ae 8e a6 3c 27 c7 5d bd c0 7b 1f 3e
       -0.22273104 0.020331707 -0.054145005 0.1557455
000240 32 ed 14 bb 52 db 4f bc 2e 8f 8c 3d 54 11 20 be
       -0.0022724387 -0.012686567 0.06863247 -0.1563161
000250 7e 3b cf 3c 5a 4b 58 bd 9e d8 4f 3b f4 de 65 3e
       0.025296923 -0.052806236 0.0031714807 0.22448331
000260 77 69 5f bd f2 0f 8f ba 03 c9 1d bd a7 2f d7 bd
       -0.05454394 -0.0010914786 -0.038521778 -0.10507136
000270 f5 38 49 bb 9f 8d 6c bd e9 db 51 3d 21 9e 1e 3e
       -0.0030704115 -0.057752248 0.051235113 0.15490009
000280 d4 eb 06 3e db 04 24 3d 80 77 05 3e 34 d8 d9 3d
       0.13175899 0.040043693 0.13033867 0.106369406
000290 b5 0b d1 3e 2d b6 5f bc b3 7a d2 3d 29 f1 72 bd
       0.40829244 -0.013654274 0.10277309 -0.05931202
0002a0 ae 8d 24 bd a1 7c 07 bd 67 7f a7 bd 0a 58 3e 3d
       -0.04017418 -0.03307784 -0.08178597 0.04647068
0002b0 bc 79 00 bd 0d 35 c0 bd f6 76 6f 3e 2b f2 e9 3c
       -0.031366095 -0.09385119 0.23385224 0.028557857
0002c0 83 48 ca 3c bc cb 84 3d d2 d9 13 bd 21 ca 7f bd
       0.02469278 0.06484172 -0.0360964 -0.062448625
0002d0 f2 98 08 bc 39 65 eb bc dc 03 24 3e 92 96 42 3a
       -0.008337246 -0.02873479 0.16017097 0.00074229494
0002e0 30 20 c7 3d 72 49 99 3d 47 d2 84 3d bc 3f 26 3e
       0.09722936 0.07484712 0.0648542 0.1623525
0002f0 cc 12 80 3b fa 1f f5 bc 3c c7 c7 bd d9 27 c3 3c
       0.0039084908 -0.029922474 -0.09754798 0.023822712
000300 e4 7f e2 bd 92 fa 0a 3d 19 05 f5 bb 2b 50 69 3d
       -0.110595495 0.03393037 -0.0074774143 0.05696122
000310 ec 14 1b bd 7f 4a f6 bc 8b 2d c6 3c 78 18 26 3e
       -0.03786175 -0.03006482 0.024191638 0.16220272
000320 7a e9 a9 bd 0a 02 05 bd 17 a1 e1 3d ba e1 97 bc
       -0.08296485 -0.032472648 0.110170536 -0.018540252
000330 c0 c6 1d 3d 90 ca 9c bb a9 02 f8 bc 25 d8 2f bb
       0.03851962 -0.0047848895 -0.030274706 -0.0026831713
000340 07 6f 4e bd 17 4e cf bd 04 7a 01 3d 12 54 62 bd
       -0.050398853 -0.10122316 0.031610504 -0.055255957
000350 a8 3e 00 be ca db 8d 3e 75 84 df 3e ec e7 c6 3c
       -0.12523901 0.27706748 0.43655744 0.02428051
000360 0f 85 84 3d 03 4a 0e 3e d8 61 cb 3d f4 9b 39 3e
       0.064706914 0.1389542 0.099307716 0.18125898
000370 21 ec 67 bc 0f 66 b0 3a db a6 96 3e 96 c7 85 3e
       -0.014155419 0.001345815 0.29424176 0.26128834
000380 99 c2 8c 3d 48 b5 a9 bd 83 80 75 3d 99 b5 10 3e
       0.06873054 -0.0828653 0.05993701 0.14131774
000390 c2 7e c0 bd 16 54 b4 bd d5 86 ce bd c9 83 d6 3c
       -0.09399177 -0.088051006 -0.10084311 0.026185887
0003a0 85 da 37 be ad 7e 77 bc d7 c6 92 3c a2 06 15 be
       -0.17954452 -0.015105885 0.01791708 -0.14553311
0003b0 b8 94 2d bd e4 a6 4e 3e 47 64 a8 bd 22 ec 4c bd
       -0.042378157 0.20180851 -0.082222514 -0.05002988
0003c0 80 93 8b 3c 97 2b 83 3e 7d 30 20 3e 90 ca 82 3e
       0.017038107 0.25619194 0.15643497 0.25545168
0003d0 00 e0 85 3e bb 73 d6 bd 1a 56 bb bd 4a 46 77 ba
       0.2614746 -0.104712926 -0.09147282 -0.0009432776
0003e0 d2 e9 93 bd 1c 73 bb bd d7 78 7e 3d a7 6c 64 3e
       -0.07222332 -0.09152815 0.06212696 0.22307073
0003f0 0d e1 cf 3e 9a 27 99 3e ac f0 c7 3e 64 3e 95 3e
       0.40601388 0.29913026 0.39050806 0.29149163

gnn.2.bias f4 [4]
000000 be b7 ae 3e 00 00 00 00 8c 83 16 be 51 47 c6 3e
       0.3412456 0.0 -0.14698619 0.38726285

gnn.2.lin.weight f4 [4, 4]
000000 46 99 1e be db a4 c9 be e5 80 f7 3e 2e cf b5 be
       -0.15488157 -0.39383587 0.48340526 -0.35509628
000010 09 ed 2b bd 95 cd 73 bc bf 07 24 bf 3f 40 32 bf
       -0.0419741 -0.014880558 -0.6407432 -0.6962928
000020 f9 0b 27 bf cc 94 38 bf 6f e6 f7 3e 6b 36 85 bc
       -0.65252644 -0.72102046 0.48417994 -0.0162613
000030 89 18 15 3f cb 01 14 bf 91 c2 be 3e 8c 45 f5 be
       0.5824056 -0.57815236 0.37257817 -0.47904623

fc.0.weight f4 [4, 8]
000000 7a a7 2a be 2f f8 4a 3e cb 71 7e be 67 89 13 3e
       -0.1666545 0.19821237 -0.24848096 0.14407884
000010 1b dc 68 3c 8e 34 55 3d 59 ee 89 bc 10 37 c2 be
       0.0142126335 0.052052073 -0.016837286 -0.37932634
000020 14 a6 70 bd fd 57 7b be 4b 92 2b 3e dd d7 c1 3e
       -0.058752134 -0.24545284 0.16755025 0.37860003
000030 7c 15 b7 3e 3e 6c 20 be e6 a5 5c 3e 6c 3b 80 3e
       0.3575858 -0.15666291 0.2154766 0.25045335
000040 c2 5b 76 be 0b f8 de bd 02 d4 f9 be 6a ca fd be
       -0.2405844 -0.10887154 -0.48794562 -0.49568492
000050 ca ed cd be 54 43 18 3e 54 7d 53 be 08 91 11 3d
       -0.4022048 0.14869434 -0.20653278 0.035538703
000060 7e 2e 0e 3f 90 fc 89 3e 11 0d fe 3c d5 72 fe 3e
       0.5553969 0.26950502 0.03101209 0.49696985
000070 05 53 b3 3e e5 77 21 be 73 e2 08 be e9 dd 83 3d
       0.35024276 -0.15768392 -0.13367634 0.064388104

fc.0.bias f4 [4]
000000 61 53 69 be 3e 36 6c be 1b 40 62 bd ba 99 07 3f
       -0.22785713 -0.23067567 -0.055236917 0.52968943

fc.2.weight f4 [1, 4]
000000 8f 44 06 be 33 fb 94 be 89 4c 6e bd c7 5b 25 3f
       -0.1311209 -0.290979 -0.05817846 0.64593166
