models/gnn-recsys-model.pt (torch, 35746 bytes, 5 tensors)

conv1.bias f4 [16]
-0.0050785104 -0.050177913 -0.051163945 -0.021799263 0.029369539 0.074421704 0.013685428 -0.064222395
0.06286285 0.06543592 0.11309825 0.040175762 -0.038142994 0.06464921 -0.035370443 0.0799086
00000000: a269 a6bb 5b87 4dbd 4991 51bd 5e94 b2bc
00000010: 6398 f03c 686a 983d d838 603c 0887 83bd
00000020: 3dbe 803d 4503 863d 0ea0 e73d 578f 243d
00000030: d43b 1cbd ce66 843d 99e0 10bd 1fa7 a33d

conv1.lin.weight f4 [16, 495]
0.032736987 -0.10287845 -0.10024231 0.024766307 0.01117335 0.09898926 -0.14212021 -0.009381742
-0.16733763 -0.067629434 -0.12450516 -0.004662747 -0.04650574 -0.0668407 -0.09480123 -0.16022922
-0.009478816 0.037220363 0.023676842 -0.0026398932 -0.010991047 -0.0017863734 0.041377876 0.01007503
0.050432973 0.04263179 -0.029932601 0.0022204672 -0.010800365 -0.07885019 0.06359721 -0.019974835
0.04695042 -0.0039534564 0.059936345 0.042321447 0.08264171 -0.08357984 0.056979753 0.028411025
-0.058186967 -0.015347237 0.011987463 -0.011401816 0.14257474 -0.05627773 0.08378932 -0.029184991
0.07831481 0.14836861 -0.08761603 0.089956306 -0.043620918 0.033782523 -0.0011233179 -0.013963139
0.030885449 0.02006957 0.050915714 0.024473308 0.0416908 -0.09126789 -0.009496579 0.0941896
-0.036229786 0.06203737 -0.0030461124 0.034363773 0.09427218 -0.04716853 -0.0032399662 -0.056861177
0.037378207 0.03905817 -0.037619855 0.009950619 0.02413294 -0.041124254 0.029767983 -0.017449914
-0.046683803 0.062361293 -0.01299293 -0.090216875 0.060839437 -0.0019939148 0.0005068426 -0.028793445
0.04521906 0.046606243 -0.07378036 0.0066476506 0.049886648 -0.09543456 0.06250465 0.034998868
0.041608524 -0.0076140966 0.011854867 -0.0021883359 0.07575862 0.12823866 0.05519288 0.09068009
-0.06805584 0.021700852 -0.055373028 0.039969858 0.041542843 -0.055988774 0.0016270255 -0.049489047
0.05945603 -0.036177848 -0.04013387 0.04145306 -0.006245593 -0.042052776 0.057579935 0.08436335
0.18991995 -0.025771331 0.030474933 0.037853543 -0.007830199 0.040180944 -0.035680223 -0.02212542
-0.048008025 0.019803917 0.015136465 -0.0026735303 -0.04055478 0.025812954 0.021157656 -0.018982748
0.07466145 -0.0070187463 0.004048037 0.014162197 0.08874464 -0.05356983 0.081222184 0.057418514
0.019210702 0.06284312 -0.04506311 -0.07227335 -0.08316582 -0.042585447 0.013140329 0.0021262213
-0.013680571 0.0015100169 -0.01888548 0.16115716 0.03277359 -0.10110086 0.07383075 0.07787307
-0.009701229 -0.010516423 0.032009702 0.11050274 -0.02085989 -0.017451204 0.06519375 0.14564328
0.12674496 0.011903404 -0.04372786 0.03538691 -0.024758283 0.009609557 0.0064619845 -0.011788334
0.006147012 0.079893425 -0.0015201991 -0.015857032 -0.036973163 -0.001465973 0.062076427 -0.03467316
-0.04225097 -0.04364497 -0.048883844 -0.08518147 -0.012171949 0.14833143 -0.03559027 -0.0039014104
0.11278701 -0.0076231407 -0.015808403 0.034944702 -0.019445138 0.0021732359 0.032487314 0.029074088
0.122289754 -0.040481955 -0.056528307 0.031327013 0.013487302 -0.0033270882 0.0051197247 -0.014416408
-0.10919153 0.058391828 0.017229868 0.008517927 -0.059191704 0.0600417 -0.059959155 0.0032245917
-0.03264282 -0.012960853 0.113253966 0.056307733 -0.028527446 0.08568011 0.06658346 0.1453835
-0.014782613 0.07069397 0.04848452 0.004799353 -0.018159678 0.024080915 0.014597901 -0.03413286
0.01654064 -0.022721201 -0.03868281 0.05795584 0.12906297 -0.03972845 0.002779376 -0.10679005
0.0067058667 -0.05182549 -0.021456894 -0.0423293 0.07529207 -0.049817014 0.041824326 0.1198014
0.09039305 -0.007244508 0.052177582 0.002549157 0.057838395 -0.0010837425 -0.11828018 0.046942756
00000000: 3817 063d f0b1 d2bd d74b cdbd b6e2 ca3c
00000010: 6d10 373c e2ba ca3d f687 11be e1b5 19bc
00000020: 8e5a 2bbe 4d81 8abd 90fc febd f5c9 98bb
00000030: ce7c 3ebd c7e3 88bd 2627 c2bd 2113 24be
00000040: 094d 1bbc 6174 183d f0f5 c13c 0f02 2dbb
00000050: cb13 34bc bf24 eaba d97b 293d bd11 253c
00000060: ce92 4e3d ac9e 2e3d 3735 f5bc 4285 113b
00000070: 04f4 30bc 357c a1bd 413f 823d 44a2 a3bc
00000080: 154f 403d ff8b 81bb d07f 753d 4159 2d3d
00000090: 0f40 a93d e82b abbd 9a63 693d 3dbe e83c
000000a0: 7555 6ebd fa72 7bbc 1067 443c afce 3abc
000000b0: 1dff 113e 7a83 66bd bc99 ab3d 5d15 efbc
000000c0: 8463 a03d f1ed 173e 0870 b3bd 033b b83d
000000d0: d9ab 32bd 8b5f 0a3d 4b3c 93ba a6c5 64bc
000000e0: 7b03 fd3c f068 a43c ff8c 503d 3f7c c83c
000000f0: f9c3 2a3d a9ea babd 8a97 1bbc 7ae6 c03d
00000100: af65 14bd e61a 7e3d 49a1 47bb 07c1 0c3d
00000110: c611 c13d ca33 41bd 9d55 54bb 44e7 68bd
00000120: e419 193d 76fb 1f3d 4717 1abd ec07 233c
00000130: 72b2 c53c e871 28bd fcdb f33c 1ff3 8ebc
00000140: 8437 3fbd 8e6e 7f3d 4ce0 54bc a0c3 b8bd
00000150: c632 793d 57ac 02bb a2dd 043a 3be0 ebbc
00000160: 9f37 393d 30e6 3e3d 281a 97bd 89d4 d93b
00000170: f155 4c3d 3273 c3bd 7002 803d f95a 0f3d
00000180: b36d 2a3d ac7f f9bb eb3a 423c 2f6a 0fbb
00000190: 5627 9b3d ff50 033e ee11 623d 7cb6 b93d
000001a0: dc60 8bbd fcc5 b13c d4ce 62bd 6fb7 233d
000001b0: d428 2a3d 7c54 65bd eb41 d53a 07b5 4abd
000001c0: 2b88 733d 392f 14bd 6a63 24bd afca 293d
000001d0: d5a7 ccbb 883f 2cbd f0d8 6b3d b1c6 ac3d
000001e0: 607a 423e 661e d3bc 91a6 f93c 510c 1b3d
000001f0: 3c4a 00bc c694 243d 6d25 12bd 5e40 b5bc
00000200: 10a4 44bd d33b a23c f0fe 773c 6536 2fbb
00000210: c51c 26bd b075 d33c d252 ad3c b581 9bbc
00000220: 1ae8 983d 83fd e5bb 65a5 843b 8f08 683c
00000230: c0bf b53d 0a6c 5bbd d157 a63d ad2f 6b3d
00000240: c35f 9d3c e5b3 803d 1894 38bd 0d04 94bd
00000250: d752 aabd 146e 2ebd 894a 573c 1358 0b3b
00000260: 7924 60bc c2eb c53a b9b5 9abc 6206 253e
00000270: 9a3d 063d f80d cfbd 9434 973d eb7b 9f3d
00000280: e7f1 1ebc 134d 2cbc 9b1c 033d 434f e23d
00000290: 5ce2 aabc d4f5 8ebc 4d84 853d 8323 153e
000002a0: 6ec9 013e 7f06 433c fc1b 33bd ddf1 103d
000002b0: e2d1 cabc 6771 1d3c 0ebf d33b db23 41bc
000002c0: e06c c93b 2a9f a33d 6b41 c7ba 9be6 81bc
000002d0: 2c71 17bd e425 c0ba da43 7e3d 7205 0ebd
000002e0: 5a0f 2dbd 11c5 32bd 6d3a 48bd 9f73 aebd
000002f0: db6c 47bc 32e4 173e 1ac7 11bd ceae 7fbb
00000300: e0fc e63d 8acb f9bb a080 81bc 2d22 0f3d
00000310: 694b 9fbc d96c 0e3b 6b11 053d c82c ee3c
00000320: 0d73 fa3d 68d0 25bd 3a8a 67bd c150 003d
00000330: d8f9 5c3c 470b 5abb 5dc3 a73b cc32 6cbc
00000340: cf9f dfbd 452c 6f3d a725 8d3c c68e 0b3c
00000350: 0073 72bd 49ee 753d bb97 75bd ac53 533b
00000360: 7ab4 05bd c259 54bc b2f1 e73d f0a2 663d
00000370: 64b2 e9bc 0e79 af3d e95c 883d 6adf 143e
00000380: c632 72bc 00c8 903d b497 463d e443 9d3b
00000390: 9bc3 94bc 5745 c53c 092c 6f3c e6ce 0bbd
000003a0: 3c80 873c d021 babc de71 1ebd 1a63 6d3d
000003b0: 1529 043e 4dba 22bd 3126 363b beb4 dabd
000003c0: e3bc db3b f746 54bd 5ec6 afbc 7d61 2dbd
000003d0: bb32 9a3d ed0c 4cbd fc4f 2b3d 705a f53d
000003e0: fe1f b93d 5663 edbb 29b8 553d c20f 273b
000003f0: f4e7 6c3d 5d0c 8eba e13c f2bd 0c47 403d

conv2.bias f4 [16]
0.10540269 -0.0152484095 0.11941579 0.12077227 -0.019062484 -0.07842134 0.104649596 -0.064133644
0.13547032 0.10328933 0.15991105 0.12211306 -0.029984431 0.115565844 0.13588014 -0.034816578
00000000: 5edd d73d 77d4 79bc 4490 f43d 7457 f73d
00000010: ed28 9cbc 5e9b a0bd 8752 d63d 8058 83bd
00000020: bbb8 0a3e 5b89 d33d b9bf 233e 6916 fa3d
00000030: e9a1 f5bc c9ad ec3d 2a24 0b3e d49b 0ebd

conv2.lin.weight f4 [16, 16]
-0.41851133 0.22379985 -0.24067307 -0.25814754 0.048708636 0.20606188 0.49246347 -0.25956595
0.3974505 0.09686623 0.07211273 0.023304455 -0.24629597 0.20497769 -0.08368775 0.51387835
-0.34433562 -0.14188695 -0.20193608 -0.014571449 0.19342951 0.43158105 -0.3719718 0.39370722
-0.33353797 -0.41179344 0.10726749 0.43391365 0.12522061 -0.31756327 0.37125033 0.35192627
0.30029488 -0.056931026 -0.23249106 -0.281643 0.23374379 0.09335475 0.42612407 0.32085696
-0.10849607 -0.25414062 0.5902406 0.10051729 0.04695524 0.085701466 -0.34626204 -0.16139482
0.39172682 -0.26674032 -0.33464265 0.043300875 0.26737484 0.44740862 -0.2921432 -0.055438023
-0.00092518196 0.52489626 0.5285622 -0.058029257 -0.086563416 0.04985714 -0.20121269 0.21783768
0.22691384 -0.4339823 0.06718932 0.005618634 0.36991128 -0.22082742 0.045857113 0.10487919
-0.13956246 -0.3584095 0.18923111 0.40111145 -0.38111365 0.14892703 0.13355981 0.019710185
0.26117086 0.18962562 0.30635467 -0.025275143 -0.23134784 -0.021696027 0.30373684 -0.10206424
-0.0828364 -0.08846976 0.22480252 -0.22360581 0.33461764 0.16417824 -0.013075303 0.12228262
0.4286111 0.36337286 -0.06416904 0.31601262 0.3496873 -0.24357358 -0.3198449 -0.44803867
-0.28293234 0.44761476 0.28309947 0.44964623 0.10323191 -0.15899916 -0.35770512 -0.064463034
-0.07759968 -0.3480607 -0.005461721 0.24692047 0.14567019 0.26206055 -0.25275344 -0.41167122
-0.18256174 -0.026318746 -0.13493332 0.08157472 -0.046333265 -0.19783422 -0.06386577 0.064521134
-0.43603158 -0.3628232 -0.27543315 0.19136357 0.043650184 0.088283606 -0.30626854 -0.3878835
-0.26102 -0.3065191 0.43801123 0.3240381 -0.1113742 0.4187481 0.045375902 0.4399843
0.0997727 0.2675558 0.12809108 0.100611925 0.3810009 0.004357471 0.16491605 0.27798834
0.20990719 -0.013697401 -0.2892005 -0.4224044 -0.3218214 0.12918918 -0.4300948 0.3044544
0.22071554 -0.29871485 0.028658096 -0.23816936 0.22777718 -0.17735016 -0.18944915 0.18120256
-0.14578056 0.11818499 -0.15974075 -0.05977211 -0.087208904 0.25359413 0.4047793 0.19521463
-0.4051494 -0.29951656 0.03683834 -0.22597261 0.3079894 -0.08639049 -0.3941135 -0.1840791
0.23026465 0.05744977 0.2566963 0.46913874 0.13786155 0.10825402 -0.21572952 0.24194737
0.1548603 -0.13923034 0.12276712 -0.3514345 -0.39209613 0.17340745 -0.30184948 -0.34333763
-0.3556 -0.17469592 0.34743205 -0.17028251 0.11286735 0.15234736 0.31112352 0.018893784
-0.2931357 -0.35373256 -0.07039783 0.41692522 -0.17501275 0.31450188 0.05521633 -0.20841505
0.49965277 -0.03192539 0.22720914 -0.030581359 0.13245837 0.47347945 -0.34207988 0.30765072
-0.045054615 -0.28311828 -0.14017956 0.13650042 -0.028650666 -0.15625836 0.09180683 -0.1514601
-0.24196747 0.19501069 -0.22380915 0.055978622 0.07833763 0.44604498 -0.37577724 0.30352524
-0.06351088 0.16339575 -0.18655407 0.35532877 0.3981816 -0.24877875 0.17724493 -0.23405024
0.07974434 0.21647489 -0.4379134 0.14288831 0.08681534 -0.1987628 -0.013494856 -0.086228535
00000000: 1e47 d6be ca2b 653e 0073 76be ea2b 84be
00000010: b582 473d e301 533e 2c24 fc3e d4e5 84be
00000020: a27e cb3e cd61 c63d d7af 933d fce8 be3c
00000030: 0335 7cbe ace5 513e 7c64 abbd 888d 033f
00000040: c24c b0be d04a 11be 55c8 4ebe 16bd 6ebc
00000050: 6312 463e 31f8 dc3e 1673 bebe fe93 c93e
00000060: 7dc5 aabe 97d6 d2be 0faf db3d ee29 de3e
00000070: d539 003e a797 a2be 8614 be3e ae2f b43e
00000080: 40c0 993e 8230 69bd 2312 6ebe 8333 90be
00000090: 885a 6f3e c630 bf3d ef2c da3e 5d47 a43e
000000a0: 3033 debd b81e 82be 021a 173f 02dc cd3d
000000b0: 2354 403d 4084 af3d 4249 b1be af44 25be
000000c0: 6b90 c83e 3092 88be 4856 abbe 425c 313d
000000d0: 5be5 883e be12 e53e cb93 95be fb12 63bd
000000e0: e987 72ba 9a5f 063f da4f 073f 16b0 6dbd
000000f0: 2948 b1bd 0037 4c3d b30a 4ebe d710 5f3e
00000100: 1a5c 683e ee32 debe 8e9a 893d 851c b83b
00000110: 0365 bd3e 9520 62be abd4 3b3d e7ca d63d
00000120: 76e9 0ebe 7381 b7be cdc5 413e 7b5e cd3e
00000130: 5421 c3be 5480 183e e7c3 083e 4177 a13c
00000140: 30b8 853e 382d 423e 85da 9c3e d10d cfbc
00000150: 73e6 6cbe debb b1bc 6583 9b3e 0e07 d1bd
00000160: 21a6 a9bd a22f b5bd a232 663e ecf8 64be
00000170: 0153 ab3e 571e 283e cc39 56bc 4f6f fa3d
00000180: ea72 db3e 020c ba3e 0f6b 83bd 68cc a13e
00000190: 370a b33e 5a6b 79be b6c2 a3be 5365 e5be
000001a0: 82dc 90be c32d e53e 6af2 903e 0838 e63e
000001b0: 406b d33d add0 22be 2025 b7be 3205 84bd
000001c0: 95ec 9ebd 0335 b2be 3df8 b2bb b8d8 7c3e
000001d0: 912a 153e cd2c 863e e668 81be 92c6 d2be
000001e0: 77f1 3abe 699a d7bc f62b 0abe a610 a73d
000001f0: f3c7 3dbd 0e95 4abe 0fcc 82bd a823 843d
00000200: 883f dfbe f6c3 b9be 9305 8dbe d0f4 433e
00000210: 89ca 323d 09ce b43d 3bcf 9cbe ab98 c6be
00000220: 6aa4 85be 12f0 9cbe 0243 e03e 52e8 a53e
00000230: 2818 e4bd 2766 d63e 15dc 393d 9f45 e13e
00000240: a155 cc3d 13fd 883e 4f2a 033e a00d ce3d
00000250: 8d12 c33e 1ec9 8e3b c1df 283e 7d54 8e3e
00000260: e9f1 563e 106b 60bc 1712 94be 6445 d8be
00000270: c6c5 a4be 2b4a 043e 6335 dcbe 72e1 9b3e
00000280: 4103 623e 27f1 98be 62c4 ea3c abe2 73be
00000290: 6c3e 693e 489b 35be f5fe 41be 2a8d 393e
000002a0: 8047 15be f90a f23d 1493 23be 9ad3 74bd
000002b0: 959a b2bd 17d7 813e 3b3f cf3e 58e6 473e
000002c0: be6f cfbe 3c5a 99be cde3 163d 5d65 67be
000002d0: c9b0 9d3e 7fed b0bd 3fc9 c9be 3b7f 3cbe
000002e0: 7fca 6b3e 7350 6b3d b36d 833e f432 f03e
000002f0: 942b 0d3e 49b4 dd3d 33e8 5cbe 0dc1 773e
00000300: b393 1e3e 6692 0ebe 546d fb3d 39ef b3be
00000310: d3c0 c8be b991 313e 048c 9abe f3c9 afbe
00000320: 3411 b6be 7de3 32be 9de2 b13e 8a5e 2ebe
00000330: ff26 e73d f200 1c3e 954b 9f3e 23c7 9a3c
00000340: e215 96be 6f1c b5be bd2c 90bd 3977 d53e
00000350: 8b36 33be 6406 a13e 852a 623d c16a 55be
00000360: 7dd2 ff3e 33c4 02bd 83a9 683e c285 fabc
00000370: 2ba3 073e e66b f23e 1825 afbe 6584 9d3e
00000380: 308b 38bd e1f4 90be 3b8b 0fbe c4c6 0b3e
00000390: cdb4 eabc 3102 20be 3805 bc3d 5b18 1bbe
000003a0: 52c6 77be e2b0 473e 3a2e 65be d749 653d
000003b0: 7b6f a03d 0260 e43e e065 c0be a967 9b3e
000003c0: fe11 82bd 3751 273e 0808 3fbe a7ed b53e
000003d0: 75de cb3e dbbf 7ebe b27f 353e deaa 6fbe
000003e0: 0051 a33d 98ab 5d3e 2f36 e0be 5051 123e
000003f0: 3ecc b13d 7a88 4bbe 8719 5dbc 9698 b0bd

fc.weight f4 [1, 32]
0.29338872 -0.08356795 0.27844065 0.20971408 0.11395678 0.15646794 0.0893501 0.1333421
0.23231658 0.19785346 0.097176164 0.05753024 -0.16067569 0.023638558 0.2114521 -0.018023752
0.03839198 0.06897085 0.0063985228 0.070569985 -0.13768035 -0.11592827 0.17610134 -0.12348373
-0.01706392 -0.041326795 0.23107648 0.181086 0.01040336 0.20630255 0.12153068 -0.03007778
00000000: 0c37 963e ac25 abbd c68f 8e3e 4abf 563e
00000010: 2c62 e93d 2239 203e 2ffd b63d d58a 083e
00000020: 66e4 6d3e 199a 4a3e 4c04 c73d d4a4 6b3d
00000030: 2b88 24be a6a5 c13c e686 583e 8ca6 93bc
00000040: e940 1d3d 9740 8d3d b3aa d13b ff86 903d
00000050: 14fc 0cbe cd6b edbd e953 343e 0ae5 fcbd
00000060: a2c9 8bbc 4946 29bd 509f 6c3e 9c6e 393e
00000070: db72 2a3c fa40 533e 14e5 f83d ad65 f6bc
